Assets/Traning Results/classifying agents/1/classAgent.onnx (onnx, 262104 bytes, 8 tensors)

network_body._body_endoder.seq_layers.0.weight f4 [128, 365]
-0.004147562 0.12671183 0.11401513 -0.055991117 0.16077961 0.045752812 -0.1757655 0.15287331
0.13673742 0.07121686 0.0767425 -0.002737249 -0.028486673 0.03177427 0.0071761915 -0.17923994
0.07188755 0.00015940062 -0.122129135 -0.07585066 0.006530514 0.0016501606 0.07094442 0.09767415
-0.007948452 0.15026067 0.06679665 -0.0068635275 -0.026629364 -0.04819442 0.087906286 0.042181943
-0.0693271 -0.12366636 0.0020225279 -0.037483696 0.0053406437 -0.018198801 0.069890976 0.08268227
-0.012898664 -0.007920544 -0.014463815 0.02819029 0.097960435 -0.17288493 -0.03537085 0.01803704
-0.038294088 0.0047927755 -0.0025540735 0.07001118 0.06349097 -0.012401221 0.033830866 -0.13600408
0.021481669 0.073572025 -0.09389465 0.027878426 0.02510616 0.011009227 -0.0070483456 -0.120398805
-0.20497194 0.04178452 0.03054939 -0.06640799 0.07701917 0.036806144 -0.09476342 -0.074392155
-0.034135103 -0.047999565 -0.02879533 0.052410714 -0.074248 -0.028463142 -0.071974665 -0.10200059
-0.07429402 -0.03803843 0.004657401 0.051745597 -0.065742105 -0.046479546 0.097341515 0.0456567
0.061683796 -0.0742116 0.02909409 -0.06799239 0.0107301455 -0.016304597 0.0133080715 -0.007498012
0.043970183 -0.11094378 -0.08950776 0.058513585 -0.075503685 0.0012697371 -0.04326055 -0.070422895
-0.08099937 0.008174164 -0.033688042 -0.00735004 -0.008020355 -0.08743054 0.010423079 -0.081466086
0.07589262 0.007350863 0.020304203 -0.034716792 -0.07024163 0.09233804 -0.03502738 0.10967428
0.107459314 -0.010036182 -0.08044486 -0.13202654 -0.07031766 0.008856141 0.004456046 0.02922246
0.05127635 -0.16248539 0.04335764 -0.049161393 0.08497758 -0.08121117 0.0035362311 -0.033202596
0.060118835 -0.07995789 0.052753747 0.019318838 -0.03955537 0.06863185 -0.030085774 -0.04975811
0.007417444 0.21832636 0.050034568 -0.02606534 0.038940247 -0.04720636 0.007829408 -0.013233749
0.10473388 -0.06709803 0.06714389 -0.15920655 0.021646094 -0.114427336 0.0684426 0.022120614
-0.00023071523 0.023200002 -0.082953125 0.04055935 -0.08028561 -0.03985383 0.096333824 0.092712715
0.03941819 0.019217215 -0.07684555 0.09559012 0.038529575 0.04043813 0.0035916825 0.08416781
-0.009631967 0.092442214 0.08445514 -0.0017424229 0.01833263 -0.11868366 0.04432159 -0.14864211
0.053827025 -0.009575097 0.071888976 0.006982376 -0.005304659 0.11682933 -0.06460406 -0.08638032
-0.018171709 0.10871099 0.009008872 -0.0672151 -0.08801744 0.13309303 0.12331551 0.033162188
0.003279829 -0.0020880096 0.0724086 0.0900715 0.052203067 -0.039572075 0.05569567 -0.043721985
0.018778814 -0.03350442 0.036622897 -0.065675855 0.06056946 -0.004482898 -0.040499836 -0.018987874
0.054189045 -0.16703002 0.019706719 -0.047513347 -0.026233684 0.027581302 0.048092812 0.024788314
-0.08887045 0.04523927 -0.015040324 0.01110867 -0.003909795 0.11402272 0.060740788 -0.047797356
0.09684821 -0.05343933 0.033513322 -0.07297564 0.0632713 -0.020643817 0.041333627 0.06771892
-0.044289246 0.06595518 -0.061969645 -0.00398458 0.055941593 -0.01242267 -0.026217688 -0.13626944
0.10588459 0.04008283 0.11551257 0.0031797602 0.025701648 -0.09115893 0.038375348 -0.009376934
00000000: 46e8 87bb bfc0 013e c480 e93d f156 65bd
00000010: 69a3 243e 4d67 3b3d dffb 33be d28a 1c3e
00000020: e504 0c3e 25da 913d 2c2b 9d3d 6b63 33bb
00000030: e25c e9bc bd25 023d 4226 eb3b ad8a 37be
00000040: c839 933d c724 2739 d71e fabd 9757 9bbd
00000050: ecfd d53b 344a d83a 4f4b 913d 6209 c83d
00000060: 393a 02bc efdd 193e afcc 883d 71e7 e0bb
00000070: d325 dabc 8367 45bd 3608 b43d f9c6 2c3d
00000080: 5efb 8dbd ca44 fdbd 638c 043b 8188 19bd
00000090: 9100 af3b a715 95bc 0023 8f3d 5255 a93d
000000a0: eb54 53bc 2bc5 01bc a3f9 6cbc 53ef e63c
000000b0: 7b9f c83d bf08 31be 06e1 10bd 6ac2 933c
000000c0: 43da 1cbd b70c 9d3b 3e62 27bb 0662 8f3d
000000d0: 8e07 823d 7e2e 4bbc 3c92 0a3d a744 0bbe
000000e0: 53fa af3c eeac 963d d74b c0bd 4c61 e43c
000000f0: 6fab cd3c 0b60 343c cff5 e6bb a693 f6bd
00000100: 2ae4 51be 3f26 2b3d b742 fa3c ea00 88bd
00000110: 3abc 9d3d 0ac2 163d 5313 c2bd ea5a 98bd
00000120: 40d1 0bbd 319b 44bd 2fe4 ebbc 9eac 563d
00000130: 560f 98bd 892b e9bc 7467 93bd afe5 d0bd
00000140: 7727 98bd 2fce 1bbd 1c9d 983b 31f3 533d
00000150: cca3 86bd 5661 3ebd fd5a c73d 8502 3b3d
00000160: 26a8 7c3d 40fc 97bd bb56 ee3c 983f 8bbd
00000170: 7ecd 2f3c 3891 85bc 190a 5a3c e2b1 f5bb
00000180: 141a 343d 7e36 e3bd d84f b7bd f1ab 6f3d
00000190: ada1 9abd 4f6d a63a f931 31bd e139 90bd
000001a0: ffe2 a5bd eeec 053c 79fc 09bd 9bd8 f0bb
000001b0: cf67 03bc c80e b3bd 90c5 2a3c b1d7 a6bd
000001c0: 976d 9b3d 82df f03b 0055 a63c 3233 0ebd
000001d0: d8da 8fbd ba1b bd3d df78 0fbd e99c e03d
000001e0: a113 dc3d cc6e 24bc 46c0 a4bd f731 07be
000001f0: b502 90bd 5919 113c 0604 923b f163 ef3c
00000200: 2607 523d 9262 26be c897 313d 755d 49bd
00000210: ba08 ae3d 0b52 a6bd 1dc0 673b 72ff 07bd
00000220: 2b3f 763d f6c0 a3bd 5014 583d 8a42 9e3c
00000230: d004 22bd db8e 8c3d 7176 f6bc 29cf 4bbd
00000240: 080e f33b f290 5f3e 0cf1 4c3d fb86 d5bc
00000250: cf7f 1f3d 755b 41bd eb46 003c 5ed2 58bc
00000260: b77e d63d b16a 89bd bc82 893d 0b07 23be
00000270: 2653 b13c e158 eabd a22b 8c3d 4a36 b53c
00000280: 26ec 71b9 ee0d be3c 54e3 a9bd 9021 263d
00000290: c86c a4bd c53d 23bd ab4a c53d 2ae0 bd3d
000002a0: f874 213d 6c6d 9d3c 3361 9dbd c1c4 c33d
000002b0: 30d1 1d3d 74a2 253d 6f62 6b3b 2c60 ac3d
000002c0: 66cf 1dbc 5852 bd3d d1f6 ac3d 0362 e4ba
000002d0: 502e 963c 6b10 f3bd 8e8a 353d a335 18be
000002e0: ba79 5c3d dee0 1cbc 873a 933d 6acc e43b
000002f0: b4d2 adbb 3744 ef3d 224f 84bd 2ae8 b0bd
00000300: d6dc 94bc dea3 de3d f399 133c 12a8 89bd
00000310: 7d42 b4bd 8a49 083e d88c fc3d 13d5 073d
00000320: 66f2 563b fdd6 08bb f64a 943d 6877 b83d
00000330: e2d2 553d 5416 22bd 2521 643d d315 33bd
00000340: 07d6 993c ee3b 09bd e401 163d 1081 86bd
00000350: af17 783d 46e5 92bb 28e3 25bd 758c 9bbc
00000360: 55f5 5d3d eb09 2bbe fc6f a13c 5b9d 42bd
00000370: 06e8 d6bc 2ff2 e13c f8fc 443d dd10 cb3c
00000380: b601 b6bd d04c 393d b16b 76bc 2401 363c
00000390: bd1d 80bb be84 e93d 55cb 783d 29c7 43bd
000003a0: 5b58 c63d 33e3 5abd 4445 093d 4174 95bd
000003b0: 6294 813d 391d a9bc 734d 293d 38b0 8a3d
000003c0: a468 35bd 8213 873d e2d3 7dbd 1491 82bb
000003d0: 0323 653d 7488 4bbc 7ac6 d6bc 378a 0bbe
000003e0: 05da d83d e52d 243d db91 ec3d 8663 503b
000003f0: 438c d23c 88b1 babd 782f 1d3d b6a1 19bc

network_body._body_endoder.seq_layers.0.bias f4 [128]
0.048569508 0.08720842 0.029942486 0.023470994 0.0029812695 -0.017991079 0.0023590913 -0.031815358
0.008465751 0.044254377 -0.0062187095 -0.05350255 -0.049640093 0.0011907762 0.030793225 -0.041566364
-0.02353328 0.002957076 -0.04645979 -0.03937997 0.04135059 -0.008897252 0.021192208 0.025541063
-0.01716368 0.042985264 -0.055705246 -0.027996767 0.035918806 0.0027815213 0.024718722 -0.009708927
0.018964693 -0.00069456233 -0.044144962 0.04699714 -0.026864028 0.018712813 -0.044613183 -0.05684819
0.020989256 -0.017342875 0.005872151 0.014194764 -0.048883397 -0.036978323 -0.033690352 0.01924468
-0.052600563 0.031558633 -0.005933682 -0.020025788 0.010099943 0.00096495566 -0.023836464 0.014120908
-0.03433428 0.037892878 0.022517873 0.015540818 -0.008599312 -0.013357472 0.02917369 0.024266487
-0.063367285 0.0016133361 0.024523916 -0.051693786 -0.03415747 -0.05335666 0.008866028 -0.031783488
-0.00365263 0.003257329 -0.050413195 -0.074523136 -0.02885717 -0.041528143 -0.023390759 -0.052199144
0.012639006 -0.0032983993 -0.009721866 0.04366123 0.05566197 -0.012549316 -0.041301075 -0.049952805
-0.043630093 0.055309866 -0.002341289 -0.0412394 -0.062838964 0.016569473 -0.059293214 -0.019852638
-0.0043833624 -0.050703753 -0.08282411 -0.041882843 0.004161315 0.021357618 -0.022766203 0.040887475
0.0005252364 0.021420712 -0.07728357 -0.06457475 0.007504983 -0.04547313 0.069642365 -0.028394073
-0.029567176 0.03133117 -0.013648572 -0.0033444262 0.091202684 -0.052979436 0.055741493 0.026719982
0.045741748 -0.0071904548 0.024847921 0.04205106 -0.014640853 0.036010697 -0.09639916 0.0051857824
00000000: d2f0 463d 549a b23d f249 f53c 3e46 c03c
00000010: 6761 433b 0762 93bc fc9a 1a3b d250 02bd
00000020: efb3 0a3c 1444 353d 51c6 cbbb 7d25 5bbd
00000030: 6953 4bbd d213 9c3a 1342 fc3c 7e41 2abd
00000040: ddc8 c0bc 81cb 413b 9f4c 3ebd e44c 21bd
00000050: 3c5f 293d c8c5 11bc 489b ad3c 7e3b d13c
00000060: d99a 8cbc 5111 303d 2f2b 64bd 7a59 e5bc
00000070: 991f 133d 2f4a 363b eb7e ca3c 3112 1fbc
00000080: d85b 9b3c 4a13 36ba 59d1 34bd 1380 403d
00000090: f311 dcbc 9d4b 993c 50bc 36bd a6d9 68bd
000000a0: a9f1 ab3c a512 8ebc 2c6b c03b 2891 683c
000000b0: f539 48bd 9576 17bd e5fe 09bd 05a7 9d3c
000000c0: b073 57bd a043 013d 556f c2bb 1f0d a4bc
000000d0: 3b7a 253c 14f5 7c3a b044 c3bc 625b 673c
000000e0: 1aa2 0cbd 9035 1b3d 6777 b83c ea9e 7e3c
000000f0: 21e4 0cbc 4cd9 5abc aafd ee3c 83ca c63c
00000100: b5c6 81bd 9476 d33a 61e6 c83c ddbc 53bd
00000110: b4e8 0bbd 838c 5abd d142 113c 672f 02bd
00000120: f660 6fbb ea78 553b 117e 4ebd 969f 98bd
00000130: df65 ecbc 6a19 2abd fa9d bfbc c5ce 55bd
00000140: d513 4f3c f529 58bb 7648 1fbc 1ed6 323d
00000150: cefd 633d a59b 4dbc 512b 29bd 509b 4cbd
00000160: 78b5 32bd 998c 623d 5070 19bb a5ea 28bd
00000170: b7b1 80bd b4bc 873c 71dd 72bd 00a2 a2bc
00000180: 4fa2 8fbb bdae 4fbd b09f a9bd 588d 2bbd
00000190: a45b 883b 2cf6 ae3c 3080 babc a079 273d
000001a0: 05b0 093a 7d7a af3c d946 9ebd c43f 84bd
000001b0: 5cec f53b 0842 3abd a8a0 8e3d b09a e8bc
000001c0: dd36 f2bc 1d55 003d 439e 5fbc 292e 5bbb
000001d0: 79c8 ba3d f700 59bd 3151 643d dde3 da3c
000001e0: b35b 3b3d e89d ebbb de8d cb3c bb3d 2c3d
000001f0: 30e0 6fbc f47f 133d ec6c c5bd 7fed a93b

network_body._body_endoder.seq_layers.2.weight f4 [128, 128]
-0.12599553 -0.07214521 -0.027500879 0.024137676 0.020755585 0.22478864 0.03098811 -0.07119599
0.10513489 0.034940522 -0.010645228 -0.005210152 -0.040389907 0.015020652 0.089434996 0.010531644
0.0222955 -0.0053607333 0.21961702 0.10081317 -0.05881397 0.03887425 0.027361726 0.027381001
0.05471715 -0.029704241 0.018453581 -0.2599431 -0.12461328 -0.09759531 -0.23875012 -0.070921294
-0.08560909 0.09748329 0.051723428 -0.09278102 -0.078078434 0.13418865 0.039779443 -0.025729837
-0.046283055 0.06172909 0.011914619 0.003989768 -0.0295409 -0.0788313 0.0716509 -0.09698101
0.061144438 0.127883 0.005205078 0.011664581 0.031648237 0.01850948 -0.10682149 0.06511881
0.06929831 -0.08176601 0.0008033055 -0.085237406 -0.109394185 -0.051443946 0.07156529 0.15176187
-0.08916099 0.08119329 -0.13910237 0.10980585 -0.1515552 0.2016501 0.065950036 0.014597154
-0.111972444 -0.022030065 -0.108600356 -0.060292054 0.069692306 -0.060786076 0.03221213 0.00049420673
-0.16458564 0.03148484 -0.23617522 -0.003735397 0.11485495 -0.041393097 0.1205635 -0.023287341
-0.035690878 -0.13810931 0.10988526 -0.15840714 -0.1173011 -0.0067905337 -0.0016379893 -0.04082945
0.07037235 0.03992965 0.041730497 -0.034925062 0.04875808 0.16621312 -0.14439158 0.014870688
0.1943415 0.083710395 0.05756065 -0.123754755 -0.08645673 -0.096555896 -0.09765222 -0.13145898
0.13469967 -0.017298039 -0.0025836881 0.0640317 0.119081326 0.018931933 0.027463617 -0.04652398
-0.03163292 -0.01724289 -0.086736016 0.00861909 0.1456109 -0.111076154 -0.07281398 0.04147982
-0.07090952 0.07377594 -0.061520576 0.013439693 -0.082496144 -0.051886003 -0.015851604 -0.09295971
-0.21352233 0.013248799 0.26744378 0.051706105 -0.09090462 -0.006668719 0.037229773 -0.1024163
-0.041681517 -0.08464888 0.035105158 0.049398016 -0.05961736 0.022621073 -0.12622608 -0.0973662
-0.020404734 0.062692545 -0.0113222655 0.07920857 0.013875758 -0.113049686 0.08579782 -0.12109485
-0.10681047 0.035432473 -0.15686236 -0.033919353 -0.0064228415 0.016022982 -0.14091924 -0.11014222
0.03332173 -0.2240242 -0.033303034 0.10544734 -0.003945791 0.14989176 0.05805097 0.06541151
0.104485415 -0.06656847 0.02361279 -0.025080224 -0.08441008 -0.1369585 0.17520812 0.14858717
-0.070729636 0.22229904 -0.17873621 -0.13207398 0.0664999 -0.08617897 0.047278345 0.0015495575
0.121983044 -0.18800353 -4.5365465e-05 0.08367222 0.14099282 0.028248694 -0.3009202 0.077332504
0.022973455 -0.006006496 0.0046327366 -0.02698441 -0.18232548 -0.07803219 0.14342172 -0.025327617
0.06245934 -0.025109138 -0.03355279 0.037766706 0.12552342 -0.08330417 -0.1260906 -0.09696532
0.050433572 -0.16381213 -0.11777636 0.07360227 0.06358518 -0.06299369 0.03534274 0.13027045
0.0075038187 -0.046269357 -0.06375667 -0.08086959 -0.20202744 -0.15138274 -0.057504583 0.09069461
-0.12405961 -0.105920225 0.10406404 -0.0069769747 -0.1650328 -0.10592835 -0.22213575 0.11517064
-0.088029735 0.14674293 -0.07221184 -0.121750414 -0.11043596 0.022400727 0.06635404 0.06498548
-0.13742916 -0.013247676 -0.050813735 -0.03172029 0.050851937 -0.088595286 -0.017637614 0.030921262
00000000: f904 01be dec0 93bd 8649 e1bc 60bc c53c
00000010: 9e07 aa3c fe2e 663e c7da fd3c 34cf 91bd
00000020: f650 d73d cb1d 0f3d 5369 2ebc ecb9 aabb
00000030: e36f 25bd 2e19 763c b229 b73d eb8c 2c3c
00000040: 0da5 b63c 17a9 afbb 49e3 603e 2377 ce3d
00000050: ebe6 70bd 9b3a 1f3d b325 e03c 1f4e e03c
00000060: 171f 603d 4f56 f3bc f72b 973c 4317 85be
00000070: 3f35 ffbd 0de0 c7bd e97a 74be 2f3f 91bd
00000080: d253 afbd 52a5 c73d f2db 533d fa03 bebd
00000090: 96e7 9fbd c068 093e c5ef 223d 61c7 d2bc
000000a0: 4d93 3dbd a4d7 7c3d 8935 433c 9abc 823b
000000b0: c2ff f1bc 4e72 a1bd b5bd 923d fb9d c6bd
000000c0: 9772 7a3d c3f3 023e 5c8f aa3b cc1c 3f3c
000000d0: 95a1 013d 31a1 973c 3ac5 dabd 035d 853d
000000e0: 46ec 8d3d f074 a7bd eb94 523a f390 aebd
000000f0: 0f0a e0bd e3b6 52bd d390 923d 7767 1b3e
00000100: 0a9a b6bd ab48 a63d da70 0ebe e4e1 e03d
00000110: 4931 1bbe 5d7d 4e3e d010 873d e728 6f3c
00000120: cf51 e5bd 6578 b4bc dd69 debd cdf4 76bd
00000130: d7ba 8e3d d2fa 78bd def0 033d a78d 013a
00000140: 2389 28be 3ff6 003d ebd7 71be 90cd 74bb
00000150: 1239 eb3d cf8b 29bd ffe9 f63d 18c5 bebc
00000160: 9930 12bd 876c 0dbe 860b e13d 7b35 22be
00000170: 8f3b f0bd 2083 debb cdb1 d6ba c83c 27bd
00000180: 611f 903d 468d 233d 99ed 2a3d 950d 0fbd
00000190: 8db6 473d c633 2a3e 63db 13be 30a4 733c
000001a0: 7501 473e 5b70 ab3d b7c4 6b3d 2273 fdbd
000001b0: 3a10 b1bd 19bf c5bd e3fd c7bd 2f9d 06be
000001c0: b6ee 093e 9eb4 8dbc 1853 29bb 0d23 833d
000001d0: e9e0 f33d 2417 9b3c 61fb e03c ee8f 3ebd
000001e0: 8591 01bd f640 8dbc a7a2 b1bd 1537 0d3c
000001f0: 061b 153e e57b e3bd 7f1f 95bd bee6 293d
00000200: 0339 91bd d717 973d 00fd 7bbd 2832 5c3c
00000210: bdf3 a8bd 6b86 54bd 39db 81bc a961 bebd
00000220: 99a5 5abe 7e11 593c 64ee 883e c8c9 533d
00000230: 342c babd 4585 dabb 3f7e 183d a3bf d1bd
00000240: 3dba 2abd 645c adbd 6dca 0f3d 9355 4a3d
00000250: 5531 74bd d44f b93c 6941 01be ee67 c7bd
00000260: d427 a7bc f364 803d 0681 39bc 1a38 a23d
00000270: 2657 633c 9886 e7bd c4b6 af3d 9400 f8bd
00000280: 73bf dabd a421 113d 87a0 20be 05ef 0abd
00000290: b376 d2bb a142 833c 224d 10be 3f92 e1bd
000002a0: 5e7c 083d 9a66 65be c368 08bd c6f4 d73d
000002b0: b24b 81bb 3a7d 193e dbc6 6d3d 78f6 853d
000002c0: 73fc d53d 0d55 88bd 9c6f c13c 0b75 cdbc
000002d0: 31df acbd d93e 0cbe c269 333e 3c27 183e
000002e0: b3da 90bd 5ca2 633e a006 37be 673e 07be
000002f0: 1931 883d 9a7e b0bd f0a6 413d 861a cb3a
00000300: 3fd2 f93d ff83 40be cc46 3eb8 575c ab3d
00000310: 6c60 103e ce69 e73c 3612 9abe 8160 9e3d
00000320: d432 bc3c 24d2 c4bb 36ce 973b 690e ddbc
00000330: 88b3 3abe 57cf 9fbd 25dd 123e dd7b cfbc
00000340: 5dd5 7f3d aeb1 cdbc a66e 09bd 43b1 1a3d
00000350: 3689 003e 609b aabd e51d 01be c195 c6bd
00000360: 6f93 4e3d 5ebe 27be bb34 f1bd c9bc 963d
00000370: f238 823d d602 81bd 8dc3 103d 9e65 053e
00000380: 98e2 f53b f084 3dbd db92 82bd f59e a5bd
00000390: 48e0 4ebe 1404 1bbe ed89 6bbd 18be b93d
000003a0: f712 febd b4ec d8bd 871f d53d 1b9f e4bb
000003b0: 5cfe 28be f6f0 d8bd 8e77 63be 96de eb3d
000003c0: ef48 b4bd c743 163e cde3 93bd 4858 f9bd
000003d0: 402c e2bd bb81 b73c a0e4 873d 1b17 853d
000003e0: 3bba 0cbe c80c 59bc 1022 50bd 23ed 01bd
000003f0: 1f4a 503d 7271 b5bd c27c 90bc 964e fd3c

network_body._body_endoder.seq_layers.2.bias f4 [128]
-0.003657314 0.023439847 0.02474641 0.024596814 -0.03304294 -0.017939383 -0.040082324 -0.021379238
0.042939264 0.008190479 -0.006880186 0.054402288 -0.02801847 0.013686425 -0.07150236 -0.023061043
0.048355695 -0.0033951304 0.032848604 -0.012095061 -0.03966984 -0.02627562 0.0013175809 0.06839176
0.009317487 0.026125306 0.03011441 -0.030070657 -0.083313964 -0.024655577 0.0229204 0.010185236
0.051613767 -0.01306618 0.04724931 -0.017209457 0.017651167 0.0038705177 0.019550297 0.031744167
0.0061093895 -0.03066259 0.059020866 -0.017443066 0.03792238 0.026392639 0.029886587 -0.012552908
-0.02743336 0.0057703746 0.059011143 0.056017198 -0.03476247 0.050653856 -0.028819198 0.012455299
-0.03406887 0.0011758116 -0.028697815 -0.0019113185 -0.0030903935 -0.0077246716 0.035469368 0.028009072
0.025860308 -0.06835222 0.037026267 0.02490221 -0.017245185 0.008947778 -0.10007615 0.06734437
0.046586424 0.021624193 0.0051844637 0.059951477 0.014245424 -0.0116268955 0.0020425143 0.010186557
0.02780749 -0.023075504 -0.010382456 -0.0056010783 -0.003098551 0.018504972 0.040633198 0.015831528
0.0069415695 0.0051413625 0.031795803 -0.06255793 -0.014747239 -0.010346424 0.06499736 -0.09331478
-0.08457241 -0.03683085 -0.010129682 0.027272154 0.039130054 -0.012160594 0.040177137 0.058961924
0.009917344 0.007411916 -0.017920585 0.02738793 -0.020131903 -0.014252297 -0.07130472 0.011020565
-0.002554268 -0.017572852 -0.02617283 0.045413334 0.027529605 -0.023873944 0.040088348 -0.08979737
0.033872653 0.0060050003 -0.082573384 0.041358635 0.05246885 -0.0050569093 -0.041058898 0.053682365
00000000: 8caf 6fbb ec04 c03c fcb8 ca3c 427f c93c
00000010: 0958 07bd 9df5 92bc 5d2d 24bd 8323 afbc
00000020: 15e1 2f3d 5c31 063c 2f73 e1bb efd4 5e3d
00000030: fe86 e5bc 073d 603c d46f 92bd 83ea bcbc
00000040: 9f10 463d d680 5ebb 428c 063d 5d2a 46bc
00000050: d87c 22bd f83f d7bc aeb2 ac3a fb10 8c3d
00000060: 5fa8 183c bd04 d63c 7fb2 f63c bd56 f6bc
00000070: 83a0 aabd 7efa c9bc 90c3 bb3c fadf 263c
00000080: f568 533d 8813 56bc 7e88 413d d9fa 8cbc
00000090: 2e99 903c 83a8 7d3b f227 a03c 2c06 023d
000000a0: 4631 c83b 1d30 fbbc ddbf 713d c3e4 8ebc
000000b0: 7f54 1b3d 6035 d83c b7d4 f43c b6aa 4dbc
000000c0: edbb e0bc 6915 bd3b abb5 713d 4a72 653d
000000d0: 1763 0ebd 6b7a 4f3d 3d16 ecbc 4f11 4c3c
000000e0: cd8b 0bbd b11d 9a3a ae17 ebbc 3585 faba
000000f0: 3388 4abb 3e1f fdbb 5448 113d 4873 e53c
00000100: ffd8 d33c 40fc 8bbd dba8 173d b8ff cb3c
00000110: c645 8dbc b399 123c b9f4 ccbd d8eb 893d
00000120: 68d1 3e3d 3825 b13c 6fe2 a93b ae8f 753d
00000130: a465 693c bc7e 3ebc b4db 053b 84e5 263c
00000140: 89cc e33c d708 bdbc 2d1b 2abc 4089 b7bb
00000150: 0f11 4bbb bd97 973c ff6e 263d 1fb1 813c
00000160: 1b76 e33b e078 a83b 513c 023d 5f1e 80bd
00000170: 679e 71bc 0c84 29bc 561d 853d d21b bfbd
00000180: 4d34 adbd f2db 16bd f7f6 25bc da69 df3c
00000190: d646 203d 3a3d 47bc c890 243d 0f82 713d
000001a0: 5b7c 223c a8df f23b 31ce 92bc a75c e03c
000001b0: a9eb a4bc 7782 69bc 3608 92bd 9a8f 343c
000001c0: 8265 27bb f1f4 8fbc 6768 d6bc 5503 3a3d
000001d0: c485 e13c 4a93 c3bc ae33 243d afe7 b7bd
000001e0: 0dbe 0a3d 98c5 c43b 3c1c a9bd ac67 293d
000001f0: 94e9 563d 6eb4 a5bb 602d 28bd 0ae2 5b3d

action_model._continuous_distribution.log_sigma f4 [1, 2]
-0.17728797 -0.08705196
00000000: fa8a 35be 4c48 b2bd

action_model._continuous_distribution.mu.weight f4 [2, 128]
0.034072913 0.013997493 0.013287485 -0.032622095 -0.013686512 0.024235675 0.03418948 -0.0060237558
0.058897767 0.009879874 0.023868173 -0.072598435 -0.018734405 0.042508807 0.010857688 -0.009129356
-0.044396296 -0.018148696 -0.05121957 -0.021803115 -0.010975078 0.006025574 0.034926903 -0.026878722
0.055418875 0.030093016 -0.06620537 0.0007434283 -0.000434108 0.025848998 0.05729867 -0.015828138
-0.06988004 -0.004860841 -0.0776263 0.03261825 0.013606453 0.06974033 -0.027380014 -0.0034522442
0.009777629 -0.0065824864 -0.085952684 0.0075508533 -0.082389295 -0.013948173 -0.04447615 -0.039519086
0.055442613 -0.05375639 -0.035686936 -0.006392354 0.04042385 -0.014242803 -0.01587837 -0.002915713
0.019233985 0.052615967 -0.024483224 0.033241697 -0.03263866 0.0068040052 0.06911426 -0.06625803
-0.06053453 -0.018017747 0.08440688 -0.03911026 0.018672142 0.056327753 0.012545093 -0.005656643
-0.05283964 -0.017207712 -0.052538425 -0.096504055 0.01669477 0.027405411 -0.038732298 -0.06734192
-0.0012262112 0.070385344 0.018026324 0.024528863 0.068563096 0.062877715 -0.035602033 0.054063376
-0.06411989 -0.0069746305 0.0489392 -0.000112701615 0.0050426307 0.022624271 -0.028510444 0.0041120714
0.014999348 -0.0062980307 -0.024525959 0.02571025 0.09649004 -0.017944677 -0.07256763 -0.02058224
-0.042561512 0.0034723564 -0.018196357 0.069402725 0.050768565 0.009033513 0.0026464753 -0.029498667
0.062918775 0.0033192895 -0.020380894 -0.082158126 -0.014502766 -0.00033836268 0.08056657 -0.005571923
0.017135294 0.043106597 0.0048132674 -0.04894433 0.04730703 0.028515462 -0.00861264 0.002238578
0.02029803 -0.049765576 -0.055195708 0.07551025 0.029480865 0.020049732 0.022699459 -0.004056168
0.05825588 0.043423682 -0.03428001 -0.03386809 -0.025819281 -0.07451497 0.003306555 0.03811955
-0.058621 -0.017021984 0.029507834 0.013159358 -0.002404888 0.012850696 -0.0169991 -0.0896762
-0.038533606 0.023659669 0.02330861 0.030401347 -0.0018946737 0.025692655 0.045845866 -0.03926759
0.030191235 0.052719742 -0.021697693 0.022243511 0.03325622 -0.07520692 0.07627052 -0.07508813
0.042895515 -0.018746564 -0.054012634 0.019230578 0.01328297 -0.026968887 0.083119124 -0.042624667
-0.052120447 -0.008702143 -0.082833156 -0.0524412 0.034138914 -0.07775984 0.033625335 -0.053444978
0.023835594 0.0391369 -0.030249508 0.0324398 -0.02580411 -0.048558243 -0.09559845 0.011643772
0.027757986 -0.031769373 0.02848387 -0.05636493 0.05356293 -0.056219533 0.022635011 -0.08820586
-0.0545652 -0.07372935 0.021815091 0.031986736 -0.076857105 0.018239317 0.07190365 -0.041729424
-0.05943353 -0.027095076 -0.021636974 -0.029065637 -0.06773179 -0.026725803 -0.074201524 -0.06876234
-0.03052943 -0.02923992 -0.07212146 0.006256969 0.0448671 -0.06736916 -0.08099783 -0.036822442
0.010413471 -0.009875316 0.037949115 0.038169414 0.0691615 -0.012697217 -0.033167627 -0.07074236
0.043110974 0.04757647 -0.039507095 0.088550545 0.009207622 -0.032509733 0.015988432 0.021895245
0.04871523 -0.0039914954 0.03398545 0.023339693 0.09458335 0.022072695 0.021347 -0.013274116
0.08493191 -0.037081193 0.000439846 -0.055064242 -0.10289157 0.023234874 -0.012924071 -0.069181316
00000000: 0a90 0b3d be55 653c c0b3 593c bf9e 05bd
00000010: 643d 60bc e589 c63c 450a 0c3d ed62 c5bb
00000020: c93e 713d 32df 213c 3087 c33c 7dae 94bd
00000030: e578 99bc b71d 2e3d 72e4 313c 4b93 15bc
00000040: e4d8 35bd 93ac 94bc 9dcb 51bd 729c b2bc
00000050: d0d0 33bc 2e72 c53b 830f 0f3d c430 dcbc
00000060: e7fe 623d a185 f63c ae96 87bd a1e2 423a
00000070: fd98 e3b9 47c1 d33c 03b2 6a3d 03aa 81bc
00000080: 441d 8fbd b147 9fbb 8afa 9ebd b79a 053d
00000090: 9aed 5e3c 05d4 8e3d 0d4c e0bc 0c3f 62bb
000000a0: 5932 203c e6b1 d7bb f607 b0bd 266d f73b
000000b0: b8bb a8bd e186 64bc a02c 36bd c4de 21bd
000000c0: cb17 633d a92f 5cbd 772c 12bd f476 d1bb
000000d0: 7b93 253d a55a 69bc 5b13 82bc 8c15 3fbb
000000e0: 9790 9d3c d783 573d 0b91 c8bc 7228 083d
000000f0: 1eb0 05bd 22f4 de3b c78b 8d3d 4ab2 87bd
00000100: 0ef3 77bd f499 93bc 84dd ac3d 1432 20bd
00000110: 52f6 983c eeb7 663d ef89 4d3c 5c5b b9bb
00000120: 616e 58bd 30f7 8cbc 8832 57bd eba3 c5bd
00000130: 78c3 883c 5081 e03c c2a5 1ebd 90ea 89bd
00000140: d2b8 a0ba 3126 903d f1ab 933c c1f0 c83c
00000150: cf6a 8c3d 08c6 803d 70d3 11bd 8f71 5d3d
00000160: 4a51 83bd 718b e4bb 7874 483d 385a ecb8
00000170: a73c a53b 8956 b93c bc8e e9bc 8ebe 863b
00000180: d3bf 753c b65f cebb aaea c8bc 4d9e d23c
00000190: 929c c53d b700 93bc 569e 94bd 169c a8bc
000001a0: fb54 2ebd 7990 633b 8710 95bc 0423 8e3d
000001b0: b3f2 4f3d 4d01 143c 7d70 2d3b 30a7 f1bc
000001c0: 8fdb 803d 7088 593b d5f5 a6bc 8542 a8bd
000001d0: 029d 6dbc 4566 b1b9 1600 a53d ae94 b6bb
000001e0: 515f 8c3c 8b90 303d 9db8 9d3b da79 48bd
000001f0: 04c5 413d 4299 e93c 081c 0dbc 1bb5 123b
00000200: 0e48 a63c fdd6 4bbd e514 62bd 1ea5 9a3d
00000210: db81 f13c 563f a43c 37f4 b93c 9ae9 84bb
00000220: b89d 6e3d 08dd 313d 3269 0cbd 44b9 0abd
00000230: f582 d3bc 4e9b 98bd cab2 583b 3f23 1c3d
00000240: 931c 70bd b071 8bbc 6aba f13c 599a 573c
00000250: 539b 1dbb ba8b 523c b241 8bbc 28a8 b7bd
00000260: 6ad5 1dbd ecd1 c13c b3f1 be3c 3f0c f93c
00000270: b356 f8ba 6779 d23c e0c8 3b3d 0dd7 20bd
00000280: 9c53 f73c a8f0 573d 5cbf b1bc 0638 b63c
00000290: ad37 083d 1606 9abd b833 9c3d cec7 99bd
000002a0: 35b3 2f3d 6592 99bc 5a3c 5dbd 7289 9d3c
000002b0: d0a0 593c dbed dcbc 5c3a aa3d 3497 2ebd
000002c0: 407c 55bd 6f93 0ebc 6ea4 a9bd 95cc 56bd
000002d0: 3fd5 0b3d 8d40 9fbd b8ba 093d 1fe9 5abd
000002e0: dd42 c33c 044e 203d d1cd f7bc 99df 043d
000002f0: 2463 d3bc 02e5 46bd 1fc9 c3bd 85c5 3e3c
00000300: b764 e33c 9a20 02bd 0157 e93c eade 66bd
00000310: ce64 5b3d 7446 66bd 0f6d b93c 46a5 b4bd
00000320: c27f 5fbd 6aff 96bd 90b5 b23c 8604 033d
00000330: 4267 9dbd 9f6a 953c 3942 933d 79ec 2abd
00000340: 9370 73bd 7ef6 ddbc 0640 b1bc 0f1b eebc
00000350: f7b6 8abd 12f0 dabc f8f6 97bd 45d3 8cbd
00000360: db18 fabc 8f88 efbc 6bb4 93bd 4307 cd3b
00000370: 90c6 373d d8f8 89bd 31e2 a5bd 21d3 16bd
00000380: 439d 2a3c 14cc 21bc 8870 1b3d 8857 1c3d
00000390: 8ba4 8d3d fd07 50bc c7da 07bd 5fe1 90bd
000003a0: 2295 303d 8bdf 423d 31d2 21bd fd59 b53d
000003b0: 91db 163c ed28 05bd 2cfa 823c a85d b33c
000003c0: 9f89 473d 17cb 82bb 5434 0b3d e232 bf3c
000003d0: eab4 c13d ccd1 b43c e7df ae3c ae7b 59bc
000003e0: c8f0 ad3d 73e2 17bd 219b e639 0b8b 61bd
000003f0: d1b8 d2bd 1057 be3c 7cbf 53bc efae 8dbd

action_model._continuous_distribution.mu.bias f4 [2]
-0.00073927164 -0.031635355
00000000: aecb 41ba 1394 01bd

action_model._discrete_distribution.branches.0.weight f4 [1, 128]
0.0057387087 0.009238592 -0.007591188 0.0039005221 -0.014667031 -0.0065822857 0.007369615 0.0013102718
0.000176572 0.0010625467 -0.0053077852 -0.012559687 -0.0055235955 -0.010562631 0.00035338828 0.002871064
-0.007319476 0.0023825315 0.0075680227 -0.020444369 -0.009624118 0.013022942 -0.018965881 0.0019907437
0.007945425 0.0071112076 0.010521108 -0.012208096 -0.0027683051 0.0026379104 0.012374067 -0.0058530066
-0.010957271 -0.014027712 0.0015439814 -0.0014543993 0.0105594015 -0.014534244 0.00023231153 -0.0017992444
0.009685766 0.009018716 -0.0053816354 0.0058888276 -0.0015094256 -0.004113691 -0.00025254482 -0.016010396
-0.0043934747 -0.006546359 -0.0038419298 0.00250076 0.006045341 0.0025650335 -0.0039876956 0.00075593573
0.014975538 0.0060004927 0.00038013913 -0.0014864 0.007856801 0.014833144 0.00015561424 0.00097089045
-0.0073221126 -0.0029477456 -0.0126729235 0.0066027823 0.003359731 -0.008265942 0.018122405 -0.011811645
-0.006696102 -0.01716966 -0.0022801121 -0.0065815747 -0.002984759 0.0002668103 -0.01312866 -0.00060895475
-0.006764295 0.011786244 0.0073926994 0.0017093898 0.011006307 -0.0027017072 0.008969399 0.0031653743
-0.008018179 -0.0052591697 -0.003824393 0.019509932 -0.0029123467 0.0010023405 -0.014258294 -0.013657113
0.00019419512 -0.008935108 0.007825947 -0.0040096873 -0.011140123 0.002276682 -0.00511088 0.0042022797
-0.0035677168 0.0024351787 -0.0040894826 -0.003782923 -0.0058694743 0.00013405153 0.00013249404 0.005160212
-0.0038480123 -0.009618315 0.009501893 0.016925624 0.015814062 -0.0028023068 0.019136293 -0.015697053
-0.002007211 -0.0040006414 0.0049025817 0.005052313 -0.0053344313 0.020570235 -0.011084526 0.00020121865
00000000: c70b bc3b 775d 173c 80bf f8bb e79f 7f3b
00000010: fd4d 70bc 37b0 d7bb d07c f13b 6dbd ab3a
00000020: 2f26 3939 2745 8b3a eeec adbb 25c7 4dbc
00000030: 47ff b4bb e30e 2dbc f946 b939 7628 3c3b
00000040: 37d8 efbb 3f24 1c3b 2dfd f73b f37a a7bc
00000050: 7aae 1dbc 2d5e 553c 565e 9bbc 2377 023b
00000060: 872d 023c 2205 e93b ba60 2c3c 7704 48bc
00000070: 746c 35bb cbe0 2c3b 99bc 4a3c 94ca bfbb
00000080: 2086 33bc 7dd4 65bc 6b5f ca3a 8ba1 beba
00000090: 5701 2d3c 0a21 6ebc a798 7339 a0d4 ebba
000000a0: 0cb1 1e3c 3dc3 133c 6e58 b0bb 11f7 c03b
000000b0: ebd7 c5ba 24cc 86bb fe67 84b9 3c28 83bc
000000c0: 23f7 8fbb d782 d6bb e3c8 7bbb cae3 233b
000000d0: ff17 c63b 1f1a 283b 37ab 82bb fd29 463a
000000e0: f55b 753c c89f c43b 694d c739 4fd3 c2ba
000000f0: d0b9 003c b706 733c 612c 2339 5b83 7e3a
00000100: 55ee efbb f72e 41bb 18a2 4fbc 275c d83b
00000110: ef2e 5c3b e06d 07bc 7075 943c a185 41bc
00000120: fa6a dbbb 63a7 8cbc ef6d 15bb 40aa d7bb
00000130: f29b 43bb ace2 8b39 9719 57bc 43a2 1fba
00000140: 05a7 ddbb 171b 413c 753e f23b 9b0d e03a
00000150: cc53 343c 200f 31bb 63f4 123c 2b72 4f3b
00000160: ae5e 03bc 1d55 acbb aba2 7abb 4bd3 9f3c
00000170: 12dd 3ebb f760 833a 9f9b 69bc 15c2 5fbc
00000180: dba0 4b39 8f64 12bc 6738 003c b263 83bb
00000190: 1085 36bc 6334 153b 2b79 a7bb 47b3 893b
000001a0: 5bd0 69bb 8597 1f3b 1101 86bb ebea 77bb
000001b0: b854 c0bb 2f90 0c39 19ee 0a39 ff16 a93b
000001c0: ef2e 7cbb 2396 1dbc d4ad 1b3c 9ba7 8a3c
000001d0: 7e8c 813c e8a6 37bb b7c3 9c3c 1b97 80bc
000001e0: 6a8b 03bb d017 83bb d6a5 a03b e08d a53b
000001f0: 74cc aebb e982 a83c df9b 35bc 38fe 5239
