Assets/Traning Results/classifying agents/2/classAgent 2.onnx (onnx, 262104 bytes, 8 tensors)

network_body._body_endoder.seq_layers.0.weight f4 [128, 365]
00000000: 09ad 5f3d 5017 75bd 8398 cabc c9b7 8f3d
00000010: 814b c1bd 897a 1ebe 64fa e1bc 9f51 2dbd
00000020: 8a56 06bd 663c 8c3d 8855 30bd 429a a5bd
00000030: fdb4 da3c db0d 1ebd baca a7bd 5b51 c53b
00000040: 3ffa 68bc 47f1 b6bd 691c ca3c 3790 e4bb
00000050: 8977 603c 7a1d e2bd e899 783d e997 55bc
00000060: fc4e 83bd 9b65 90bd 96e8 633b e79d 84bd
00000070: ff9d c8bc 62ad a43c 71d5 aa3c 7ccf 233d
00000080: 2417 273d 93a5 d7bd 04e6 713c 426f ee39
00000090: 1af0 12bd e05c 24bd ea40 e2bd 36c1 183c
000000a0: c9fb 86bc 09df 723d ffbf f3bc bd52 9f3c
000000b0: 05fc 46bb 2846 243e fecf 133c d39f 08bd
000000c0: a9d7 a6bd 9e65 b4bc 9048 a8bd 61f4 87bd
000000d0: 5cee edbc ff78 cdbd af7d 66bc 38a4 c1bd
000000e0: 4d83 543d a7e1 e6bc 86b3 b33c 6fbf bbba
000000f0: 7851 83bd c5ac 58bd 0fbc 0cbc 091f 1a3c
00000100: c90d 713d f89c 17bc 1569 823c f8bd 893d
00000110: b858 1dbd 25a3 103b 64c8 a13c 237c c83d
00000120: c1d4 08bd bd30 a83d 9ff5 77bd b04f 823b
00000130: 0387 87bd 9a8f 5cbc dc44 d2bc 4321 55bd
00000140: 183d 6cbb 3fab 33bd e60b 2a3d e6bd ad3d
00000150: 7e2f f63c 2517 14bd 7a0a 033d 5868 ed3c
00000160: f560 ac3c 1564 2f3d 8dcd 0fbc 297d 47bb
00000170: d385 663c 27eb 4abd 941b 4dbb 0c83 a13c
00000180: c02d cd3c 8508 263e 7003 f7bb 4c24 d33c
00000190: 0d53 a13d cb82 b33c 246a 003e 64bd 08bd
000001a0: f797 3abd 8001 a0bd 0a1a c33d b4e5 82bd
000001b0: c967 b9bc ab6e 463c 2734 93bd 7a31 a3bd
000001c0: 1bb1 6c3d 890d c43a e64b 403d 0b15 173d
000001d0: cb96 86bd 0f49 e63c 7de1 153c d8b2 d83d
000001e0: c7dd bcbd 7d38 f0bc c4d3 23bc a872 3d3d
000001f0: bbbd d13c 5f62 893c 5fbf 263e 22d5 be3d
00000200: 54e8 bd3d 9caa f13c 44e5 533d 1c86 20be
00000210: d96b f13c 8f24 9a3d a9b9 10bc 443b 04bd
00000220: 1c33 66bd c4ab 173b 22c1 93bd 78ca 873d
00000230: 53a1 863d 0011 82bc aa58 933d fda2 dcbc
00000240: 33e6 9dbd 2a81 363d 0ec8 88bd 589e aa3d
00000250: 19fa 283c 9fb8 933d 4476 be3b e9ae c23d
00000260: 805a b23b ba16 673d 3134 0e3c 4bab 7bbd
00000270: 098f 8abd c93d 58be 9653 b53d 9cec 823c
00000280: 5dbd 44ba b6c7 a8bb 080b 20bc 2a4d 573c
00000290: a4eb 49bb bbc4 d83c 330e 8d3b eaff 70bd
000002a0: e7fa 19bd 59af 513c dd37 093e 8462 203e
000002b0: 8734 953c 6fe6 0cbd ebda 98bd 016d 963d
000002c0: 3fd1 05be d990 163d b927 dc3d a90d b5bc
000002d0: f438 82bd eb14 65bd 2161 90bb b2f2 47bd
000002e0: 0fbc b33c 00f9 283b db02 3a3a 5009 abbc
000002f0: 20d4 d83b d7c7 babd 905d 993d bd70 12bd
00000300: e10d e43c 0013 ebbd ec04 943c 0c09 c53d
00000310: 2c7b b83d 6e64 00bd af99 93bd eeb9 d2bd
00000320: ed8d 283d fbb0 953d 5fa3 84bd 4885 8dbc
00000330: 69b5 67bd 7f7f 413d 2290 833b 9635 a7bd
00000340: d44a 933c b1e8 85bd 1449 dabb 783d c03d
00000350: 3294 c2bb b789 e23c b2de 353d aaa4 35be
00000360: 4b6a e93d c49a 133d 94f9 6d3d 8bd2 fa3c
00000370: 3d40 47bd 6b3f 453d d3a0 593d 013a 273e
00000380: ab4f 1bbd 1719 013b 2e79 46bc c58d cfbb
00000390: 30d2 febb f38a e8bc a1c2 133d 3839 aabc
000003a0: 5d20 6dbd 7b2c 41be 9bb9 4bbc 2fe1 00be
000003b0: 71e7 ecbd 2d2e 5fbd 9c4d 9f3d abd2 8cbb
000003c0: 4e4c 943d dc4f e5bd 4988 af3d 30af 08be
000003d0: 1308 d4bd 9393 bebd c7f9 143d 2753 333d
000003e0: f633 3a3d 0adf 00bb 440d f13c 7378 cf3d
000003f0: c4b0 88bd 43e0 1ebe 9bca 2d3c fd4a 2e3b
0.05460838 -0.059836686 -0.024730926 0.07017476 -0.09438229 -0.15476431 -0.027585216 -0.042314168
-0.032797374 0.068474576 -0.04305032 -0.08086063 0.02669763 -0.038587432 -0.08192964 0.006021661
-0.01421982 -0.08932739 0.02467175 -0.0069751996 0.013700374 -0.110407785 0.06069365 -0.0130367065
-0.064115494 -0.0705063 0.0034776083 -0.0647543 -0.0244894 0.020102207 0.02085373 0.039992794
0.040793553 -0.10529628 0.014764313 0.0004547779 -0.03587351 -0.040127635 -0.110475376 0.009323409
-0.016477482 0.059294734 -0.029754637 0.019448632 -0.0030362618 0.16042387 0.009021757 -0.033355545
-0.08146603 -0.022021111 -0.08216965 -0.066384085 -0.029044323 -0.10032844 -0.014068051 -0.0945515
0.05188303 -0.028183771 0.02193619 -0.001432402 -0.06412023 -0.05289914 -0.008589759 0.009406813
0.058851037 -0.009253733 0.015919248 0.06725687 -0.038414687 0.0022069898 0.019748874 0.09789302
-0.033406023 0.08212421 -0.060536977 0.0039767846 -0.06617548 -0.013461972 -0.0256676 -0.052033674
-0.0036047157 -0.043864485 0.041515253 0.08483486 0.030051943 -0.036154885 0.031992413 0.028980419
0.021042326 0.042820055 -0.0087770345 -0.0030439592 0.014069992 -0.049540665 -0.0031296955 0.019715808
0.02504623 0.16214187 -0.0075382516 0.025774144 0.07877169 0.021912953 0.1254049 -0.033383742
-0.04555508 -0.07812786 0.09526451 -0.06391469 -0.022632496 0.012111346 -0.07187682 -0.07968421
0.05778609 0.0014957647 0.046947382 0.036885303 -0.0657173 0.028111009 0.009147999 0.10580987
-0.09221988 -0.02932381 -0.009999219 0.046251923 0.025603166 0.01677054 0.1628394 0.093179956
0.09272829 0.029500298 0.051732317 -0.15676159 0.029470371 0.07526504 -0.008833327 -0.032283083
-0.056201085 0.0023143152 -0.072145715 0.06630415 0.06573739 -0.015877247 0.07194646 -0.026933188
-0.07709923 0.044556774 -0.066787824 0.08330983 0.010313534 0.07212948 0.005812438 0.09506018
0.0054429173 0.056418158 0.008679436 -0.061442655 -0.06765563 -0.21117319 0.088538334 0.015981965
-0.0007505024 -0.0051507605 -0.009768255 0.013140956 -0.0030810619 0.026460996 0.004304671 -0.05883781
-0.037592795 0.012798154 0.13400216 0.1566258 0.018213524 -0.034399446 -0.0746363 0.073450096
-0.13068102 0.03675923 0.10749764 -0.02210124 -0.06358519 -0.055928152 -0.00440611 -0.048815437
0.02194026 0.0025783181 0.00070957624 -0.020878464 0.006617084 -0.09120148 0.07488549 -0.035752047
0.02783865 -0.11478233 0.018068753 0.09620866 0.09007868 -0.031345777 -0.07207047 -0.102893695
0.041150976 0.07309147 -0.06476473 -0.017275468 -0.05656949 0.04724073 0.0040149847 -0.081645176
0.017980017 -0.06538523 -0.0066615436 0.09386724 -0.0059380764 0.027653558 0.044401832 -0.17738596
0.11397227 0.036036268 0.058099344 0.030617973 -0.048645247 0.048156183 0.05313189 0.1633072
-0.037917774 0.0019698793 -0.012113852 -0.006334039 -0.007776521 -0.028386569 0.036074284 -0.020779237
-0.057892192 -0.18864624 -0.0124343885 -0.125859 -0.115675814 -0.054487396 0.07778475 -0.0042975745
0.072411165 -0.111968726 0.08570916 -0.13348079 -0.103531025 -0.09305491 0.03637102 0.043780472
0.04545971 -0.0019664192 0.02942527 0.10130396 -0.0667434 -0.15515237 0.010607387 0.002659499

network_body._body_endoder.seq_layers.0.bias f4 [128]
00000000: 4603 f2bc d023 e93c 6892 7cbc 7104 26bd
00000010: 25b2 d83b 7469 ef3c a3d4 66bd 2f98 9f3a
00000020: def7 363d 2851 97bd 60bc 76ba 5805 cd3c
00000030: bcb6 ffbc a676 a7bc 37e4 8eba 9c02 093c
00000040: 1198 94bd 0788 8e3c d4af a43b f0c5 aabd
00000050: b9a8 81bc c0b1 303b b95c a23c ce21 52bb
00000060: e46f d23c 4ba6 053c 29ef 9939 688e acbc
00000070: 3e52 463c 761b bebb 4a71 1bbd e545 6b3d
00000080: 6324 de3b 9587 a6bd 5760 013d 3b66 a6bc
00000090: 60ed 61bc b722 be3b 5882 e8bc 2187 fabc
000000a0: 8ed6 1bbd 41c4 633d 44d2 c8bd 5e05 1a3b
000000b0: 6fe0 8c3c 4396 54bc 8b5b 57bd 4955 843d
000000c0: fcb2 ab3c 776f d1bc bb46 c83a 4c42 773c
000000d0: 3d3a 05bd de52 8bbc f0c7 adbb 46ea 5e3d
000000e0: 331c 6bbd f75e 69bd 3064 133d 2701 093d
000000f0: 1b19 1d3c f4b3 06bd 864b 0b3d 4a98 acbc
00000100: 30f2 c439 d27d 213c a6c1 d4bc ffab 9abc
00000110: ab24 b3bb 0bc5 c13c cded 213d 30cb 5b3d
00000120: d30f 1f3c 8138 77bd 9fb5 2bbc 29da 133d
00000130: 2e10 59bd b4e7 7dbc 343e e23c 0f5a 12bd
00000140: 38a4 253d e754 41bd db22 c2bb 56e9 82bb
00000150: 1922 3e3d bd43 01bd 07c3 67bc 6d0a 193d
00000160: 3594 26bd 761e 07bd d61c 263d 2b15 68bd
00000170: 5399 8bbc 0d0a ee3c 992a 85bc d060 113d
00000180: 191c 26bd faf4 15bc 9e60 ad3c d9e9 183d
00000190: 5cf4 b3bb b466 3abc 182a f13b 4946 65bc
000001a0: 12bf 083d 4f53 5abd 5d07 123d e802 0dbd
000001b0: 1d07 143c 3684 adbd eb89 53bc 19ac 17bc
000001c0: 4f5a dcbc 8e76 27bc 3ea4 8c3d c039 24bd
000001d0: b027 bc3a 2c0f a8bc d2a8 21bb 4fd1 5cbd
000001e0: 897b a93c 2822 10bd f965 ab3b bb24 e53c
000001f0: 33ed c2bc 918c 53bc ecbb f43c e5bd b63c
-0.029542577 0.02845946 -0.015415765 -0.04053158 0.0066130334 0.029225089 -0.05635513 0.0012176092
0.04466998 -0.07388526 -0.00094122253 0.025026962 -0.031215064 -0.020442318 -0.0010901754 0.0083624385
-0.07255567 0.017398847 0.005025843 -0.08338535 -0.015827524 0.0026961416 0.019819604 -0.0032063606
0.02568812 0.008157323 0.00029360622 -0.021063998 0.012104569 -0.0058016134 -0.037949838 0.057439703
0.00677924 -0.08131329 0.031586017 -0.02031242 -0.013789505 0.005802478 -0.028382465 -0.030582013
-0.038046412 0.055607084 -0.0980573 0.0023501734 0.017196862 -0.012975278 -0.052577537 0.06461579
0.02095937 -0.025565846 0.0015279868 0.01509149 -0.032526243 -0.017007288 -0.0053033754 0.05442264
-0.05739994 -0.05697533 0.035984218 0.033448365 0.009588505 -0.03288646 0.03400757 -0.02106871
0.00037564477 0.009856658 -0.025971245 -0.018880842 -0.0054670176 0.023653528 0.039533425 0.05366057
0.009708363 -0.06035662 -0.010480314 0.036096726 -0.052993946 -0.015497137 0.027617551 -0.035730418
0.040439814 -0.04720011 -0.0059245653 -0.003995101 0.046419237 -0.03155874 -0.014145619 0.03736346
-0.040668685 -0.032988034 0.040554844 -0.056660812 -0.017040884 0.029057527 -0.016255664 0.03549272
-0.04055414 -0.009152645 0.021164235 0.03733239 -0.0054917764 -0.011377025 0.0073597543 -0.013993808
0.033385344 -0.053302106 0.035651553 -0.0344266 0.009034899 -0.08472483 -0.0129113 -0.00925734
-0.026898531 -0.010221137 0.06867264 -0.040094137 0.001435509 -0.020515047 -0.0024667275 -0.05391055
0.020688789 -0.035188824 0.005230662 0.027971616 -0.023794746 -0.012911932 0.029874764 0.022307346

network_body._body_endoder.seq_layers.2.weight f4 [128, 128]
00000000: c627 82bc f259 883d 617a 743c d7e8 91bc
00000010: 7a53 da3d fbf8 373e ba97 993e 0ef7 be3d
00000020: 9bca f6bc 2604 12bd 25db 14be 106f 9bbe
00000030: 9fae 47bd 63ba 6b3c 67fe aebd 6dff 06bd
00000040: 4923 cbbd 3578 67bd d216 1f3c c553 033e
00000050: 23a8 153e db6e 0c3d 8263 dbbd 145c 62bd
00000060: a31c 573d 73c7 e8bd 6e6b d9bc bdce 9abd
00000070: 48df 903d 0608 45bd c167 eabd 80a4 e0bb
00000080: 0e3f 203d 1bef ff3d 5db3 1a3c e920 7e3a
00000090: 3def 40be a280 4fbd 67f4 a3be c1e3 db3c
000000a0: daa7 7c3e 41bc 23be 3c6d 33bd d421 503d
000000b0: 4fdc 11bd b0b4 f83c fd0c 473d 6fe0 cf3d
000000c0: a9a8 883d 627c 9e3d 1135 abbd e892 8a3d
000000d0: c244 0fbe 703b 863c a3f0 963d 0b9b 443e
000000e0: 74ef a53d 0f93 e7bd 5a6e 9dbd d9a0 00be
000000f0: c452 163d 6ec0 09bc 683d a93c 01a0 f9bc
00000100: b6b3 41bd dd65 913d c159 89bd fbe8 c73c
00000110: 9e43 7ebd bcaf 0a3e bc18 933d cee0 253d
00000120: 679e 79bc 47f4 d5bd 3179 46bd 228e 2dbe
00000130: d907 783d 0a9a 5a3c 76b5 513e 4a57 86be
00000140: 0e9c 2dbc 9406 6c3c 4fee 003e e714 f4bc
00000150: 57b5 eebd bd99 a73d 7696 88be ea04 d7bd
00000160: 9338 593d 00e9 e4bc dfce 713d e846 c13c
00000170: ecdb 27be 26af fb3c c7a4 8cbd 2cb7 e03d
00000180: 4651 6d3d a6af 3dbe 6792 2e3d 899d f6bc
00000190: 228c 8cbe 30bd 353c 0aed 1dbd 23b0 01bd
000001a0: 1078 ae3d c704 9b3d 32cd 633d 35a5 6ebb
000001b0: 3541 0d3e 5f34 263d 1cff 973d 81b9 023e
000001c0: dfbd a13c 72be 5d3e a0fc dd3d 41df 7c3c
000001d0: b9e7 d2bd dc64 16bd 2ad9 2f3e c15d d1bc
000001e0: a5db a5bd 1e7f b5bc 1644 9e3d c672 0b3e
000001f0: aedb fbbd 92c1 2dbc 3b5a 17be a9c9 e2bd
00000200: e7ea dbbd cf02 293e 6713 223e a753 14bd
00000210: fd20 e63d 6411 dfbd 84ae b93c 537d 183e
00000220: df23 123e 7433 29bc ebe9 3a3d 1808 a1bd
00000230: 9d0b 09be a40b b7bc 4b66 003e b354 2d3d
00000240: 10c8 513c c427 b53d 9043 31bd c04c 4e3d
00000250: d9ee cebd 9302 5b3c 405a dbbc 89e1 a4bc
00000260: 6c97 40bd ecc8 bbbd 133c d93d 4d98 a1bd
00000270: a37d 9b3c 947a c73d 6952 7abd 8f9e 733d
00000280: 8bb1 10be acf3 82bb 3924 47be a58d b8bd
00000290: 9d4d 62be 2d90 f3ba f8e1 023c d779 4a3d
000002a0: a615 9f3d d98d 2f3e 4aa4 043d 0a30 92bd
000002b0: fac4 21bd b144 2dbd 5ed4 b1bc 890c 953e
000002c0: 8368 57bc 9863 65bc e813 bb3d 6274 563d
000002d0: 3638 2fbd ca18 3d3d bab2 36bd 59a9 403e
000002e0: 586d 48bd a13c 063d 312a 3d3c b835 77bd
000002f0: 2378 01be 468b b5bd f60f 633d 2d92 d5bd
00000300: 661e 02bd 96d6 fc3d afc2 c23d 96a1 173e
00000310: 2d06 9abd 51df b6bd 8fcd 303d e59a 4c3e
00000320: 6838 6b3d 0032 953c 583c d6bc 72ba 053e
00000330: 3516 9cbd 9e0d 3bbd d595 343d 8fb2 223b
00000340: bf6c 05be 4b9d 82bd e27c 28be fd94 eb3c
00000350: dac6 2bbe ff59 86bc 0c3a cd3c 3f28 16bc
00000360: e4e4 39bd 9b90 2ebe 41fd 3bbe 20de 07be
00000370: 18f8 2cbe a0f4 063d c663 21be 4b8e 123e
00000380: 7696 b6bd e4a7 943d c009 aa3c 1783 a7bd
00000390: 9382 483d ca84 5d3e a43b 57bd 5ac7 823d
000003a0: 70cf 6fbd 96b7 393d 7226 2d3d 0f55 6abd
000003b0: 162a ac3d 1b36 c0bd 0d34 233d 3e6d 1f3d
000003c0: e259 89bc 7feb 303e a538 b23d 23d7 99bd
000003d0: 56e6 f0bc 98be 97bc 8684 1ebd 8f8b 66bc
000003e0: 7c9e 18be f0e6 8d3d 089b 2dbd e38d 01bb
000003f0: 4f52 d63c cad8 f33d abb8 13be 5927 25bd
-0.015888106 0.06657781 0.0149217555 -0.017811222 0.10660453 0.17966072 0.2999857 0.09324466
-0.030125907 -0.035648488 -0.14536722 -0.3035817 -0.048750516 0.0143877 -0.08544617 -0.032958437
-0.099188395 -0.056511123 0.009710031 0.12824924 0.1461492 0.034285408 -0.10712339 -0.055263594
0.052517544 -0.11366167 -0.026540484 -0.075589634 0.070738375 -0.048103355 -0.11445571 -0.0068555474
0.039122634 0.124967776 0.009442178 0.0009694235 -0.18841262 -0.050659783 -0.32022402 0.026842
0.24673405 -0.15989782 -0.043805346 0.05081351 -0.035610493 0.030359596 0.04859637 0.10150229
0.06672794 0.07738568 -0.08359731 0.067663014 -0.13991073 0.016385764 0.073701166 0.19199769
0.08102313 -0.11307346 -0.076870635 -0.12561359 0.036700025 -0.008407695 0.020659164 -0.030471804
-0.047290526 0.07099507 -0.06706572 0.024403086 -0.062076204 0.135436 0.07182452 0.040497594
-0.01523552 -0.10446983 -0.04845542 -0.1694875 0.06055436 0.01334239 0.20479378 -0.2623847
-0.010596288 0.014405865 0.12590908 -0.029795123 -0.116556816 0.0818362 -0.26677293 -0.10498984
0.05303247 -0.027943134 0.05903518 0.023593381 -0.16392487 0.030723166 -0.06867366 0.10972437
0.057938837 -0.18524036 0.04262009 -0.030104415 -0.27450663 0.011092469 -0.038556136 -0.031662118
0.08518994 0.075692706 0.05561561 -0.003641439 0.13794406 0.04057729 0.07421705 0.12766077
0.019743858 0.2165468 0.108392 0.015434087 -0.10298104 -0.03671728 0.17172685 -0.0255574
-0.080985345 -0.02215534 0.0772783 0.13618001 -0.1229776 -0.010605233 -0.14780514 -0.1107362
-0.107381634 0.16504978 0.15827714 -0.03621259 0.11236761 -0.10891989 0.022666223 0.14891557
0.14271496 -0.010327209 0.045633238 -0.07862872 -0.13383336 -0.022344418 0.12539022 0.042317104
0.012804046 0.08845475 -0.043277323 0.050366163 -0.1010415 0.013367313 -0.026776433 -0.020127075
-0.047019407 -0.09169182 0.106071614 -0.07890377 0.018980807 0.09740177 -0.06111375 0.059477385
-0.14130227 -0.003996333 -0.19447412 -0.090113916 -0.2209992 -0.0018582396 0.007988445 0.0494326
0.07767801 0.17143954 0.03238324 -0.07138069 -0.039494492 -0.042301837 -0.02170771 0.29111126
-0.013147476 -0.014000796 0.09134656 0.052357085 -0.042778216 0.04616622 -0.04460404 0.18814601
-0.048932403 0.032772664 0.011545704 -0.060353965 -0.12643485 -0.08864455 0.055435143 -0.104282714
-0.03176727 0.123456165 0.09509789 0.14807734 -0.07520709 -0.08929313 0.043164786 0.19980963
0.05742684 0.018212318 -0.026151821 0.13059404 -0.07621423 -0.045667283 0.044088203 0.0024825667
-0.13029765 -0.063776575 -0.16453889 0.028757567 -0.16775075 -0.016400335 0.025052093 -0.009164869
-0.045384303 -0.1704735 -0.18358327 -0.13268328 -0.16891515 0.032948136 -0.15760717 0.14312093
-0.08915417 0.07258585 0.020756602 -0.081793 0.04895265 0.21632686 -0.052547112 0.063856795
-0.058547437 0.045341097 0.042272992 -0.057210024 0.08406465 -0.0938532 0.03984456 0.03892254
-0.016766492 0.17277335 0.0870221 -0.07511737 -0.029406708 -0.0185235 -0.038700603 -0.014071359
-0.14904207 0.069288135 -0.042384177 -0.001976841 0.026162295 0.119065836 -0.14425914 -0.040320728

network_body._body_endoder.seq_layers.2.bias f4 [128]
00000000: 1e61 f6bc 644a b4bb 81c6 663d 709b b8bc
00000010: 738d 04bd c525 2c3b 8bab 163d 0722 bebc
00000020: 1bb0 4ebd 318b 0abd b46b b53b 65d6 39ba
00000030: 9fc5 71bc c004 0e3d 67e1 ce3a b2d9 0939
00000040: 1f16 d33c 80a5 f0bc 5059 713c 2389 fcbc
00000050: a3a2 773d 312b 9fba cb78 6fbb cdb7 96bd
00000060: 9e37 893c a49a 80bd 657b 2ebc 09c3 54bc
00000070: 184c 1cbd 4551 023c db7f 8fbd cd6f 0f3c
00000080: 8e24 09bb de0a 1fbd 982f 21bd 2a47 5fbc
00000090: 196c 843c 5f4e a7bc 4bd7 473d 203b 55bd
000000a0: 02fb 5f3d 8de4 883d b4b2 adbd 3f5a 2fbd
000000b0: 1518 8f3b 95a0 843a ead6 013c 495f 433c
000000c0: 66d3 79bc 3cef 04bc 51f8 6fbc 9994 1c3d
000000d0: 77b1 143d 9378 58bd 7b06 4ebc 22dc 8ebd
000000e0: ff3a 34bd 44bb 83bc ba9d 88bc 01fc 19bc
000000f0: fced 9a3c 0fe9 e53c 2f49 99bd 1bd0 52ba
00000100: 6cd7 843c 94c0 b7bc 2322 1bbd bd5c cf3c
00000110: 4c56 9fbb 2176 813d de30 a9bc 75f8 8cbd
00000120: 41df b53c ac1c ae3c 0494 c63b ae29 18bd
00000130: 7a90 713c 5317 8ebd a979 863c 061b eabc
00000140: 4ccc 85bd 53f3 f23c 4b0a 51bd 7d04 e0bc
00000150: 837d 0f3d 0f5c b2bb ce49 d8bc 3b2b 85bd
00000160: 2fa5 5bbd f177 efbc 6766 aabd 4d05 153d
00000170: 013f e33c f603 413d 268a c3bc bdd5 183b
00000180: 9210 9e3c a808 febc 847b 58bd c905 5a3d
00000190: aa2c 9c3c 3894 4bbd 5900 f6bb 0b36 81bd
000001a0: 59a0 dfbc 5e0d ba3d 78c9 0f3c 087c 1abd
000001b0: b4a2 f2bc 99a1 933c da23 6ebd f0aa 3f3c
000001c0: 4957 0a3d 3bf5 0a3d c137 03bd 696b bcbd
000001d0: 020d 27ba 9da8 823b bd87 60bd 0b9c 773d
000001e0: 4f2f 003c 62ac ad3c cb0d e53c 67d5 50bc
000001f0: 99c4 00bd cc11 203d ae17 283c 7c23 503d
-0.030075606 -0.005502032 0.05634165 -0.022535056 -0.03236146 0.002626763 0.03678469 -0.023209585
-0.050460916 -0.03382415 0.005536521 -0.0007089137 -0.014756589 0.0346725 0.0015783728 0.00013146436
0.025767384 -0.029375792 0.014730766 -0.03082711 0.060457837 -0.0012143609 -0.0036540504 -0.07359276
0.016750153 -0.06279495 -0.010649537 -0.012985953 -0.038158506 0.0079539465 -0.07006808 0.008754683
-0.002092633 -0.038828723 -0.03935203 -0.013627807 0.016164826 -0.020423112 0.048789304 -0.05205834
0.05468274 0.066842176 -0.084813505 -0.042810675 0.0043668845 0.0010118658 0.007924775 0.011924573
-0.015248155 -0.008113679 -0.014646606 0.03822765 0.036302056 -0.052849364 -0.012574787 -0.06975581
-0.044001576 -0.016080506 -0.016676772 -0.009398461 0.018912308 0.028065233 -0.07484662 -0.00080418744
0.016216002 -0.022430696 -0.037874352 0.025312776 -0.0048625823 0.063213594 -0.020653185 -0.06883327
0.022201182 0.021253906 0.0060601253 -0.037149124 0.014743919 -0.069380425 0.016415434 -0.028577339
-0.06533107 0.029657042 -0.051035207 -0.02734589 0.035031807 -0.005443103 -0.02640238 -0.06502386
-0.05362433 -0.029231997 -0.08320313 0.03638201 0.027740004 0.047122918 -0.023869585 0.0023320757
0.01929501 -0.031009987 -0.05285217 0.053228173 0.019064266 -0.0497019 -0.0075073657 -0.06309136
-0.02729814 0.09084581 0.008776061 -0.03771594 -0.029618599 0.018021392 -0.05813966 0.0116984695
0.033774648 0.033925276 -0.032035593 -0.09200174 -0.0006372483 0.0039873854 -0.05481695 0.06045155
0.007823779 0.021200363 0.027960679 -0.012746192 -0.03143749 0.039079472 0.010259552 0.05081509

action_model._continuous_distribution.log_sigma f4 [1, 2]
00000000: 649e 02be 29f2 12be
-0.12755734 -0.1435019

action_model._continuous_distribution.mu.weight f4 [2, 128]
00000000: 38be a6bc 4e80 2fbd 94ca 553d 8c35 273c
00000010: 8ef3 e53c 689a 78bc f550 ac3d 688d 0fba
00000020: f61a b2bc 7af1 8bbd 383f 973c 8f13 af3b
00000030: 2801 923d 08ec 37bd a6c9 23bd 4dc2 81bd
00000040: 450d 8b3d a866 0bbd 089d 6f3d 17b6 8a3b
00000050: 1c33 d83d d945 83bd 4831 9abc a28f 02bc
00000060: dbb0 ff3c c344 8bbc 374d 8fbd 9426 1e3d
00000070: 21bb c0bd 07d2 60bd e088 a63c fad3 7a3d
00000080: a4de 8fbd 3777 fdbc 0c4b ccbd cc11 e83c
00000090: 8966 04bd 104c 8bbc bc6d 633c dde0 ce39
000000a0: bd11 353d 3ce9 ea3d 18b0 573c 241c 82bd
000000b0: 3e86 4fbd 75ad 9fbc bc31 a7bc 5add 4abd
000000c0: e41b 85bd f16a 233c 3dae a9bc 8318 1ebd
000000d0: e9dc f33c 6bb4 acba c72c 21bd 3ded 36bb
000000e0: 0ef6 b2bc 64f2 a7bd fcfc d53c 3dbe f4bc
000000f0: 2cee 7d3d a2e9 aabc 820d ad3b 873c 093d
00000100: 8868 25bd b6ca 533a 6023 adbb fe85 2abc
00000110: f99f 5ebd 665a 783c 5fa0 43bc c217 ed3c
00000120: 1fea e0bc afc2 193d 05e0 433d 54a0 be3c
00000130: ce7a bb3d b164 72bb d971 f33c 61f1 bc3c
00000140: 88a1 d7bc 55f9 923d 1de8 41bc b480 babc
00000150: 4398 53bd d256 3c3d 2483 4bbd 44f9 9b3b
00000160: 2e76 75bc 94a0 30b8 7b1b 983c 81ee 05bd
00000170: 7d0c 91bd a0c4 233d 3726 07bd c2e6 223c
00000180: e3ea 853c 9150 8bba f0b0 313d c8a2 cb3d
00000190: 91e4 44bd 25d3 fbbc 8e4b 6bbc 1efc f33b
000001a0: 4b70 47bc 21ce 1fbd 31f7 a1bd 9539 8dbc
000001b0: 84b7 0fbc 67ee 82bd c9c2 47bc 36ad 053d
000001c0: c862 09bd 9423 0f3d a40f 0dbc 8603 f63b
000001d0: 1712 82bd e0a0 7cbd 0f10 843d 8572 eebc
000001e0: b1f2 873d 7d65 2bbd 21ce a3bd 8449 e63b
000001f0: 0890 51bc bd11 c0bb a257 68bd dc9e 863d
00000200: 0be2 823d 3734 813d 8210 9ebc 58e4 f7ba
00000210: 6a57 183d 687b 1d3d 5f1f 26bc 9336 f73c
00000220: ad46 ed3c 2dcb 4d3b df71 de3d d427 47bd
00000230: b720 1e3d 9452 2bbd b272 2b3d 0789 603d
00000240: 9823 a6bc 9df9 ba3b 5aff a6bc 5a12 d43c
00000250: 317e 463d fdf3 0d3d 06b9 b63d 4ffa 6c3c
00000260: b44a aa3c 914d 213d f91f 803c 3d50 d1b9
00000270: f239 303b 09f5 f2bc f3be d53c 746c a5bc
00000280: 6660 5d3d f669 043d 976f 3e3b 8004 c2bc
00000290: 7bce 9a3d 4c27 963d 7744 83bd a940 f739
000002a0: 4f63 33bd 2db3 93bc de5b a83c f0b9 323c
000002b0: 4a14 0c3d b918 a93d 445f 503d 57a1 1cbd
000002c0: 2529 bd3c 508c 643d c6c5 88bb e1fb f83d
000002d0: 0914 ef3d 0128 923c e34d 343d e691 dc3c
000002e0: 2347 0b3c c2e6 4d3c 7e3c 613d 3ca7 1a3d
000002f0: 1360 3c3d ece8 1abd 1283 bb3c 8959 023d
00000300: f602 8ebb 9bac ea3c 8719 e0bc 41d1 60bd
00000310: 8ae3 2a3d 1cfd 94bd 8c44 403d 3ed4 ef3c
00000320: 65a9 cd3c d690 553d dc69 673c 75bc 00bc
00000330: dfd5 54bc b171 4d3c b135 90bc 1109 283d
00000340: 6c3c d03c 6f3e e4bb 815f a03c 2d47 803b
00000350: 9212 62bc a1b2 be3d e549 a5bc c8ab 9cba
00000360: 28bb af3c 77f8 8b3c 21f0 193d 9fb5 50bd
00000370: be29 4bbc 4daa 79bd 674d ef3c ff18 8f3d
00000380: 5ee5 b53d e927 073d 3306 513d f51b 763d
00000390: 9020 f6bc 80e9 ba3c f70f 313d 39cb 6d3c
000003a0: 2c59 0fbc 7fd3 a4bd 05ec fa3b c8d2 343d
000003b0: a982 4bbc 6444 dbbc 9a67 9e3c 0cc1 5f3d
000003c0: 65e8 18bd d22c 4fbc 2cc1 d5bb ba44 a23c
000003d0: ddc6 29bc b629 213d 62d9 153c 0861 8ebd
000003e0: 6fce d03c 03c2 91bc 0dad aa3d af70 303d
000003f0: 4ab9 ecba 54a7 72bd 0b83 c63c d36e b8bc
-0.020354375 -0.04284697 0.052195147 0.010205638 0.028070237 -0.015173532 0.08413879 -0.0005476088
-0.021741372 -0.068331674 0.018462762 0.0053429077 0.07129127 -0.04490283 -0.03998723 -0.06335888
0.0678964 -0.034033448 0.058499366 0.0042331326 0.10556623 -0.06409807 -0.018822327 -0.007968815
0.031212261 -0.017000562 -0.069971494 0.03861101 -0.09410692 -0.054887798 0.020328939 0.061237313
-0.07024887 -0.030940635 -0.099752516 0.028328799 -0.032324348 -0.017004043 0.013881143 0.00039458918
0.04420637 0.11470267 0.013164543 -0.06353024 -0.050665133 -0.01949189 -0.020409457 -0.049527504
-0.0649946 0.009974227 -0.020712966 -0.038597595 0.029768424 -0.0013176327 -0.039349344 -0.00279124
-0.021845844 -0.08200529 0.026121609 -0.029875869 0.061994717 -0.020863358 0.0052811513 0.03350499
-0.040382892 0.00080792175 -0.005283758 -0.010407923 -0.05435178 0.015158271 -0.011940091 0.028941993
-0.027455388 0.03753918 0.047821064 0.02326981 0.091542825 -0.0036986286 0.029717373 0.023064317
-0.026322141 0.071764626 -0.011835125 -0.022766449 -0.05165888 0.045981236 -0.049685612 0.0047599394
-0.0149817895 -4.211122e-05 0.018567791 -0.03269816 -0.0708246 0.039982438 -0.03299543 0.009942712
0.016347354 -0.0010628869 0.04338163 0.099431574 -0.04806954 -0.03074033 -0.014361275 0.007445826
-0.012172769 -0.03901494 -0.07908476 -0.017239371 -0.008771781 -0.06393128 -0.0121924365 0.03263589
-0.03354147 0.03494604 -0.008609686 0.0075077442 -0.063511066 -0.06167686 0.064483754 -0.029107342
0.066380866 -0.041844834 -0.079983 0.0070278067 -0.012790687 -0.0058614896 -0.0567242 0.06573269
0.063907705 0.06308787 -0.01929498 -0.0018912656 0.03719274 0.038447767 -0.010139315 0.03017739
0.028964365 0.003140162 0.10861563 -0.048621967 0.038605418 -0.0418268 0.04185743 0.05481818
-0.020280644 0.0057060258 -0.020385433 0.025887657 0.04846019 0.034656513 0.08922009 0.014463975
0.020787574 0.039380614 0.015640246 -0.0003992337 0.0026890007 -0.029657857 0.026092028 -0.020193316
0.05404701 0.032327615 0.0029058212 -0.023683786 0.07558914 0.07331714 -0.06409543 0.00047159687
-0.04379588 -0.018029774 0.020551618 0.010908589 0.034199037 0.082566686 0.050872102 -0.038239803
0.023090908 0.055797875 -0.004173967 0.12157417 0.11673743 0.017841341 0.04401959 0.026925039
0.008500847 0.012567224 0.05498933 0.037757143 0.04599006 -0.037819788 0.022889648 0.03182367
-0.004333849 0.028646758 -0.027355922 -0.05488706 0.041720904 -0.07274839 0.04694037 0.02927601
0.025105188 0.05214008 0.01412436 -0.007857432 -0.012990444 0.012539313 -0.017603727 0.04102427
0.025419436 -0.0069654505 0.01957679 0.003914735 -0.013798373 0.093114145 -0.020176837 -0.001195305
0.021451548 0.01708625 0.03758252 -0.050954457 -0.012400089 -0.060953427 0.029211713 0.069871895
0.08881639 0.032997046 0.051031303 0.060085256 -0.030044824 0.02281642 0.043228116 0.014513784
-0.008749288 -0.08048152 0.0076575303 0.04414633 -0.0124212885 -0.02676601 0.01933651 0.054627463
-0.037331004 -0.012644963 -0.006523272 0.019808162 -0.010362354 0.03934642 0.009146066 -0.06952101
0.02548906 -0.017792707 0.08333788 0.043076213 -0.0018060592 -0.059241608 0.024232408 -0.022513783

action_model._continuous_distribution.mu.bias f4 [2]
00000000: 4d58 9ebc a813 3ebd
-0.019329214 -0.046405464

action_model._discrete_distribution.branches.0.weight f4 [1, 128]
00000000: cfff 0fbc eaa0 c23a 22c5 523b 236e d53b
00000010: 10c3 1d3c a290 8a3b 5912 90bb 6161 48bc
00000020: 321a fdbb f70c 5cbb 6ca5 b1ba 38b1 c8bb
00000030: 984e d3bb 7e03 30bc a206 f7ba 818d 99bb
00000040: 66d0 363b b169 2ebc eb42 86bc d7fd 3a3a
00000050: 20d8 6ebb cb26 50bc 4610 0cbc b276 86bb
00000060: 2a40 78bb aaff ee3b 7637 09bb 2d84 d9bb
00000070: e296 dcbb ebc0 663b ff6f 33bb 75c5 0db9
00000080: c94a 05bc 231b 9a3b 7720 c2bb a7b8 18bc
00000090: af58 52ba 9b12 98bb b189 82bb ee40 403b
000000a0: 2b16 103c b3c9 c5bb 8869 24bc 7b53 9a3b
000000b0: d573 fc3a 95e3 453b 0e50 a4bb 9b27 d0bb
000000c0: 87ee 13bc 85e8 293b 8f6e 6839 ad7d 74bb
000000d0: 0785 6b3a 6292 a4ba 9147 3e3c d592 5b3c
000000e0: b181 bbbb 4836 a2bb 1184 af3b 3b77 7abb
000000f0: d77b d8bb 02c6 15bc c579 ebba d7e0 ab3b
00000100: d7db 0c3c edcb 993b 13f2 6bba b66f c9ba
00000110: 86b7 033c 3976 273b 4bb8 08bc 42f4 d13b
00000120: 578c 46bc 3353 99bc 9195 0ebc bb45 623b
00000130: 150d 2939 c958 163c ca0b 423c 72c0 953b
00000140: 8032 d73b d2b7 79bc 1e61 3bbc a7e8 8c3b
00000150: 25fa 063b bbc3 8cbc 1871 27bc 20b1 d7bb
00000160: 2b19 de3b 88ca dabb ab2d 40bb af24 c73b
00000170: 3cdf b5bb 2565 ed3b 012b a1bc fbc4 4dba
00000180: 085f 8fbb e1be 17bc fc34 3f3c 7344 04bc
00000190: 028b bebc 82c6 4ebb db7f 6a3a fcfe 113c
000001a0: 2859 423c 9fc0 b0ba cbfe 7f3b 9372 08bb
000001b0: 5a50 303b 77a9 1bbb 3006 98bc 9f7e d33a
000001c0: 88d5 d8bb 9744 0e3b 70e0 8e39 d3f2 27bc
000001d0: 02dc ef3b 4129 483b fe37 3cbc c37b 3cbc
000001e0: b42e 87bb 737c 2f3a 2d86 5b3a 7462 07bc
000001f0: fad7 f6bb eb50 d2bb b744 95bb a2ad 28b8
-0.008789017 0.0014848982 0.0032160957 0.0065133735 0.009629026 0.0042286674 -0.0043967185 -0.012230248
-0.00772407 -0.0033577064 -0.0013553328 -0.0061246417 -0.006448578 -0.01074302 -0.0018846581 -0.004686058
0.0027895211 -0.010645316 -0.01638933 0.0007133162 -0.0036444739 -0.012704561 -0.008548802 -0.004103505
-0.0037880042 0.007293661 -0.0020937598 -0.006638071 -0.006731854 0.0035210203 -0.0027379987 -0.00013520366
-0.008135506 0.004702942 -0.0059242803 -0.009321368 -0.0008024079 -0.00464089 -0.0039836993 0.0029335576
0.008794348 -0.0060360073 -0.010034926 0.0047096587 0.0019260595 0.0030195464 -0.005014426 -0.0063523776
-0.009029037 0.0025925946 0.0002216643 -0.0037306354 0.0008984361 -0.0012555833 0.011613742 0.013401707
-0.0057222475 -0.0049503185 0.0053563197 -0.003821804 -0.0066065597 -0.009141447 -0.0017965367 0.005245309
0.008597336 0.0046934993 -0.00090006104 -0.0015368375 0.008039361 0.0025552644 -0.00834472 0.0064072916
-0.012118421 -0.01871643 -0.008702652 0.0034526426 0.0001612197 0.0091764415 0.011843631 0.0045700604
0.0065672994 -0.01524158 -0.011436729 0.0043001953 0.0020595875 -0.017183175 -0.010219835 -0.0065823942
0.0067779026 -0.0066769756 -0.0029324095 0.006077371 -0.0055502933 0.0072447234 -0.019673826 -0.0007849482
-0.0043753423 -0.009261818 0.011670347 -0.00807296 -0.023259643 -0.0031551425 0.00089454436 0.008910891
0.011862077 -0.001348514 0.003906178 -0.0020820245 0.0026903362 -0.0023752132 -0.018557638 0.0016135758
-0.006617252 0.0021708363 0.0002725157 -0.010250765 0.007319928 0.0030542167 -0.011487959 -0.0115041165
-0.0041254405 0.00066942646 0.0008374181 -0.008263219 -0.0075330706 -0.0064183376 -0.0045553106 -4.021603e-05
