Assets/Traning Results/classifying agents/3/classAgent - 3.onnx (onnx, 248242 bytes, 8 tensors)

network_body._body_endoder.seq_layers.0.weight f4 [128, 338]
0	0x3df3c654	0.119030625
1	0xbe76cb0a	-0.24100891
2	0x3d83e91f	0.06440949
3	0xbc2e58fd	-0.010641334
4	0x3ba11399	0.0049156663
5	0xbd3cf5cf	-0.04613286
6	0xbdb843b6	-0.0899729
7	0xbd953219	-0.07284946
8	0x3d5548b2	0.05207128
9	0xbcd58d2c	-0.026068293
10	0xbde4d69f	-0.11173748
11	0x3c176431	0.009240196
12	0xbbe881c8	-0.0070955493
13	0xb9594a9d	-0.00020722528
14	0xbd96bb85	-0.07359985
15	0x3e0b6828	0.13613951
16	0xbd96ee05	-0.073696174
17	0xbd4acdf0	-0.049512804
18	0xbe084c16	-0.13310274
19	0x3dac0331	0.08399046
20	0xbe69b0b7	-0.22821318
21	0x3db3b4b4	0.08774701
22	0xbe05eb13	-0.13077955
23	0xbd849cd2	-0.064752236
24	0xbb71bc85	-0.0036886048
25	0xbd139e8e	-0.03603988
26	0xbd77d304	-0.060503975
27	0xbe3776fb	-0.17916481
28	0x3c8c5ce1	0.017134132
29	0xbcb4f066	-0.022087287
30	0x3b062693	0.002046977
31	0x3ba39bb0	0.0049929246
32	0xbe1ac57b	-0.15114395
33	0x3ce472b0	0.027886719
34	0xbd14f064	-0.036362067
35	0x3dad5567	0.08463555
36	0xbdd0cb58	-0.10195035
37	0x3da425fa	0.08015056
38	0x3b8d34a9	0.004309256
39	0x3d228754	0.03967984
40	0xbd63a495	-0.05557688
41	0x3d5de551	0.05417377
42	0x3d415942	0.047204264
43	0xbbbe4044	-0.005806001
44	0xbe0d3f07	-0.13793574
45	0x3cd7c3bf	0.026338456
46	0xbda993ef	-0.08280169
47	0xbd68e5b8	-0.056859702
48	0x3b94394e	0.004523433
49	0xbd620570	-0.055180967
50	0xbd5b8ea8	-0.053602844
51	0x3d230b61	0.039805774
52	0x3d5b3301	0.053515438
53	0xbd099f34	-0.033599094
54	0x3d22e2cb	0.039767068
55	0x3ce4ab01	0.027913572
56	0x3c91b41d	0.01778608
57	0xbd3983f7	-0.045291867
58	0xbdefe324	-0.117132455
59	0x3ce46fda	0.027885366
60	0x3d8a28f0	0.067460895
61	0xbcccc852	-0.024997864
62	0xbdb56027	-0.0885623
63	0x3cb6acce	0.022299197
64	0x3d8ed0d1	0.06973422
65	0x3d44befa	0.048033692
66	0xbe057549	-0.13033022
67	0xbdc9cbf9	-0.09853358
68	0x3db0fab0	0.08641565
69	0xbd9c0973	-0.0761899
70	0xbe0e3fe8	-0.13891566
71	0x3dd31a4b	0.10307749
72	0xbdd74895	-0.10511891
73	0xbd538005	-0.05163576
74	0xbe359a4e	-0.17734644
75	0xbd9eda51	-0.07756484
76	0xbc87b4d1	-0.016565712
77	0xbd1b42bf	-0.03790545
78	0x3cba5c8b	0.022749206
79	0xbd7487e1	-0.059699897
80	0x3d083fbc	0.033263907
81	0x3dd4dcfc	0.10393712
82	0x3d19d0d4	0.03755267
83	0x3d458b16	0.048228346
84	0xbd92e705	-0.0717297
85	0xbaa8482f	-0.0012838895
86	0x3cd268d0	0.025684744
87	0xbc8d5ba2	-0.017255608
88	0xbd5ce408	-0.053928405
89	0xbb350f98	-0.0027627703
90	0xbc6861ab	-0.014183442
91	0xbddb8e5a	-0.10720511
92	0xbcae0404	-0.02124215
93	0x3bb54937	0.0055324095
94	0x3bbcd666	0.005762863
95	0x3c5472ee	0.0129668545
96	0xbcf601e8	-0.030030206
97	0xbb363196	-0.0027800552
98	0xbdbc3973	-0.09190645
99	0x3dcb6a7e	0.09932421
100	0xbdc7992c	-0.09746012
101	0xbd5aa8d7	-0.053383674
102	0xbca5923b	-0.02021133
103	0x3b97b9ab	0.0046302876
104	0xbe220f37	-0.15826117
105	0xbd35626c	-0.044283316
106	0xbcbdf3c1	-0.02318752
107	0x3daef809	0.08543403
108	0xbcd9a0cb	-0.02656593
109	0x3c7e61c6	0.015526241
110	0x3c49409d	0.012283471
111	0x3d3919ef	0.045190748
112	0x3cfc24b1	0.030779215
113	0xbbe0f94e	-0.006865657
114	0x3b925b5e	0.004466458
115	0xbd821d95	-0.063532986
116	0xbd20b100	-0.0392313
117	0x3d433f30	0.047667682
118	0xbd8ed83f	-0.069748394
119	0x3d9a7bcd	0.075431444
120	0x3ce32035	0.027725318
121	0xbcf6e56a	-0.03013869
122	0x3cb67a12	0.022275005
123	0x3d8aee1b	0.06783696
124	0x3d2d69b9	0.042337153
125	0xbcdcfe3f	-0.026976703
126	0xbcee151f	-0.029062806
127	0x3d954876	0.072892115
128	0x3da61d1f	0.08111023
129	0x3d06887e	0.032845013
130	0x3aea6d02	0.001788527
131	0xbdbf0c7a	-0.093285516
132	0xbca49d10	-0.020094424
133	0x3d78462a	0.06061379
134	0x3c9feb26	0.019521307
135	0xbc300a6c	-0.010744672
136	0x3d14fd00	0.036374092
137	0x3d8ff04f	0.07028257
138	0xba9e2429	-0.001206522
139	0x3c785645	0.015157287
140	0x3d6fffd6	0.058593594
141	0x3d2d45c4	0.04230286
142	0x3ded8d00	0.11599159
143	0xbd412b8b	-0.047160666
144	0xbd1fc65c	-0.03900753
145	0x3d504960	0.050851226
146	0xbceb1ffa	-0.028701771
147	0x3cae8b4b	0.021306654
148	0xbd8d246a	-0.06891711
149	0xbb6d8113	-0.0036240264
150	0xbd032cd6	-0.03202518
151	0x3dcd1783	0.1001425
152	0xbc0a76a3	-0.008451137
153	0x3da7369e	0.08164714
154	0x3d5e57c6	0.054282926
155	0x3d67e3a7	0.05661359
156	0x3d3ea0ed	0.04654019
157	0xbda9ea66	-0.08296661
158	0xbc7af140	-0.015316308
159	0xbd945844	-0.07243398
160	0x3bbc60d8	0.0057488494
161	0x3c862260	0.016373813
162	0x3d5405fb	0.051763516
163	0xbd490702	-0.04907895
164	0xbd249df5	-0.040189702
165	0x3cc1fda5	0.023680517
166	0xbd5f3c71	-0.054501
167	0x3db839cd	0.089953996
168	0x3d81189b	0.06303521
169	0x3e134202	0.14380649
170	0xbdd771f5	-0.105197825
171	0xbda88500	-0.08228493
172	0x3db4d3e2	0.08829476
173	0x3d1b054a	0.03784684
174	0xbdc2b50f	-0.095071904
175	0xbdc0358a	-0.09385212
176	0xbdffbd30	-0.124872565
177	0xbd3119b5	-0.043237407
178	0xbbd53dc6	-0.006507608
179	0x3bcc349a	0.0062318565
180	0x3d042d1f	0.032269593
181	0x3c215f26	0.009849345
182	0xbd3bca98	-0.045847505
183	0xbddb9385	-0.107214965
184	0x3d702a98	0.05863437
185	0xbc50cb65	-0.012743806
186	0xbd4e110d	-0.05030923
187	0xbd56017f	-0.05224752
188	0x3dea48e2	0.114396825
189	0x3d142112	0.03616435
190	0xbb948daa	-0.0045334892
191	0x39fca770	0.00048189936
192	0xbe345292	-0.17609623
193	0x3d500d93	0.050794195
194	0x3da56c53	0.08077302
195	0x3d774156	0.060365044
196	0xbd3b64f1	-0.045750562
197	0x3ca002ae	0.019532528
198	0xbda0d7ca	-0.078536585
199	0x3a33a58a	0.00068529753
200	0xbd82f559	-0.063944526
201	0xb9bdb6a6	-0.00036184973
202	0xbdfe72cc	-0.124242395
203	0xbd0e3986	-0.034722827
204	0xbc044e13	-0.008075255
205	0x3d92faf3	0.07176771
206	0xbd4d0340	-0.050051928
207	0x3cba8eb0	0.022773117
208	0x3d257336	0.040393077
209	0x3c562c24	0.013072047
210	0x3d2c8b53	0.042125057
211	0x3d41a427	0.04727569
212	0x3cf6796b	0.030087193
213	0x3d56154d	0.052266408
214	0x3d329213	0.04359634
215	0x3dba4fcb	0.090972506
216	0xbd0d9175	-0.034562547
217	0xbd47bd87	-0.04876473
218	0xbe3c0f20	-0.18365145
219	0x3d5573ed	0.05211251
220	0xbdd336f8	-0.10313219
221	0x3d1e7c66	0.038692854
222	0x3d1036dc	0.035208568
223	0xbd0d52dd	-0.034502853
224	0xbcdb73bc	-0.026788585
225	0x3d49930c	0.0492125
226	0xbd27f208	-0.041002303
227	0xbb311c1b	-0.0027024809
228	0x3b8b5da0	0.0042531043
229	0xbd8b23bc	-0.06793925
230	0x3d49a41c	0.049228773
231	0xbb677784	-0.003531904
232	0xbb25c4f3	-0.0025294393
233	0x3d84c4cf	0.06482851
234	0xbd97c1b8	-0.07409996
235	0xbd21856e	-0.03943389
236	0x3cbbbbbe	0.02291667
237	0x3cc2a24b	0.023759028
238	0xbd67c530	-0.056584537
239	0xbb8a2952	-0.0042163515
240	0x3b9e5bad	0.004832706
241	0xbd6cf17d	-0.05784749
242	0xbd973ff6	-0.073852465
243	0x3d5edee2	0.054411776
244	0xbe34fad0	-0.17673802
245	0xbd4a7731	-0.049430076
246	0xbc784e8a	-0.015155444
247	0x3d252514	0.040318564
248	0x3c52e79a	0.012872601
249	0x3bd26e0e	0.006421811
250	0x3d182e35	0.03715344
251	0xbd5f1c5e	-0.054470412
252	0xbc0bd516	-0.00853469
253	0xbd717d0e	-0.058957152
254	0xbd552941	-0.052041296
255	0x3c805a47	0.015668048

network_body._body_endoder.seq_layers.0.bias f4 [128]
0	0xbc9c3bcb	-0.01907148
1	0x3d94ebc1	0.07271529
2	0xbdabd174	-0.083895594
3	0xbd56b9bf	-0.052423235
4	0x3d9347dc	0.071914405
5	0x3ac6ffaf	0.0015182401
6	0x3bd67868	0.0065451153
7	0x3d52b4f3	0.051442098
8	0x3c2930c3	0.010326567
9	0x3d96e698	0.07368201
10	0x3cf8b162	0.03035802
11	0x3c37e62b	0.01122431
12	0x3cf7f450	0.030267864
13	0xbca90c25	-0.020635674
14	0xbd29a073	-0.041412782
15	0xbb7c7878	-0.0038523953
16	0x3d5ebb94	0.054378107
17	0x3c9feeb3	0.019523
18	0x3cc83089	0.024437206
19	0xbbfbc63a	-0.0076835426
20	0x3d7a8dc4	0.061170354
21	0xbd560a7a	-0.052256085
22	0xbdab883e	-0.083755955
23	0xbcf263ca	-0.029588599
24	0xbd8d7c3c	-0.069084615
25	0xbb41711b	-0.002951688
26	0x3cebde83	0.028792625
27	0xbbe06620	-0.0068481117
28	0xbd040987	-0.03223565
29	0x3dbacd5c	0.091212004
30	0x3a0b4502	0.0005312712
31	0xbd21fc25	-0.039547104
32	0x3d9f014d	0.0776392
33	0xbc912163	-0.017716115
34	0x3da72155	0.081606545
35	0xbcdc3cf2	-0.02688453
36	0xbc40a651	-0.011758403
37	0xbc953303	-0.0182128
38	0x3cbabb59	0.022794412
39	0x3d338e63	0.043836962
40	0x3d8f9e12	0.070125714
41	0xbd9a0914	-0.07521263
42	0xbc81566b	-0.015788278
43	0xbb3026ae	-0.0026878524
44	0x3c52daae	0.01286952
45	0xbd0f775b	-0.035025936
46	0xbce46c8b	-0.027883789
47	0xbad512be	-0.0016256196
48	0x3b945d89	0.004527752
49	0x3cd380dd	0.025818283
50	0xbdb7da49	-0.089771815
51	0xbc28fded	-0.010314447
52	0x3d5f100c	0.054458663
53	0x3dac5913	0.08415427
54	0xbd4997e2	-0.049217112
55	0xbce68a52	-0.028142128
56	0xbd0c055e	-0.034184806
57	0x3ba587aa	0.005051573
58	0xbc3fe7ae	-0.011712952
59	0x3b44dacb	0.0030037637
60	0xbcb782cf	-0.022401242
61	0x3d20e48e	0.039280467
62	0x3d09dcad	0.03365772
63	0xbcf52e07	-0.029929174
64	0xbc8fe230	-0.01756391
65	0x3bd9e421	0.0066495095
66	0xbda7b7d3	-0.081893586
67	0xbd500ff2	-0.050796457
68	0x3c847d78	0.01617311
69	0x3dca9910	0.098924756
70	0xbccc757b	-0.024958363
71	0xbcefd77e	-0.02927756
72	0xbdde64a5	-0.1085904
73	0x3d3d7847	0.046257284
74	0x3c30c620	0.010789424
75	0x3d1047ad	0.035224605
76	0x3c7936bb	0.015210803
77	0x3d21c3ef	0.039493497
78	0x3b55eba2	0.0032641669
79	0x3c932ec4	0.017966636
80	0xbba758ef	-0.0051070373
81	0x3a2d109c	0.0006601901
82	0x3d02accc	0.031903073
83	0xbd2397f2	-0.03993983
84	0x3d0f522c	0.034990475
85	0x3be47402	0.006971837
86	0x3dadb5ec	0.084819645
87	0x3dcd5b0e	0.10027133
88	0xbd1cc0da	-0.038269855
89	0x3ca66c55	0.020315329
90	0xbd6933fa	-0.056934334
91	0xbcb384f0	-0.021913975
92	0xbd64724d	-0.05577307
93	0xbd18c6d9	-0.03729901
94	0xbd46affc	-0.048507676
95	0x3cdc4d65	0.026892373
96	0xbd94fc61	-0.072747
97	0x3c243810	0.010023132
98	0x3d5a0ca1	0.0532347
99	0x39f3ee03	0.00046525904
100	0x3d327406	0.04356768
101	0xbc904e3f	-0.017615436
102	0xbce302e4	-0.02771134
103	0xbce6bec6	-0.02816714
104	0xbd3df04e	-0.04637175
105	0x3c94b127	0.01815088
106	0xbc833d78	-0.016020522
107	0xbda44442	-0.08020832
108	0x3d0ab325	0.03386225
109	0x3bc5a94e	0.0060321456
110	0x3d813b12	0.06310095
111	0x3d7874d8	0.060658306
112	0xbd7cd534	-0.061726764
113	0xbca615c8	-0.020274058
114	0x3da32ffc	0.07968137
115	0x3ca99b3f	0.02070391
116	0xbd5ff17d	-0.05467366
117	0xbda6558f	-0.08121788
118	0xbd9083c1	-0.0705638
119	0xbd90e467	-0.07074814
120	0x3c49e541	0.012322725
121	0xbbd600f6	-0.0065308763
122	0x3db7241e	0.08942436
123	0x3bdebd23	0.006797449
124	0x3db46b6b	0.08809551
125	0xbd241b72	-0.040065236
126	0x3b84ccd8	0.0040527396
127	0xbc86a113	-0.016434228

network_body._body_endoder.seq_layers.2.weight f4 [128, 128]
0	0x3de9fe3d	0.11425445
1	0x3e0be020	0.13659716
2	0xbd614969	-0.05500165
3	0x3d0cb59f	0.034352895
4	0x3cd89eb4	0.026442863
5	0xbd0a331d	-0.03374015
6	0x3d7da480	0.061924458
7	0xbdb9afe8	-0.090667546
8	0xbcf2c162	-0.029633228
9	0x3df346e6	0.11878757
10	0xbdf64c6f	-0.12026297
11	0xbd5e88e1	-0.054329757
12	0x3d491a81	0.04909754
13	0xbd9dd806	-0.07707219
14	0xbdf99435	-0.121864714
15	0x3d915fba	0.070983365
16	0xbbfcdcf4	-0.0077167694
17	0x3da838f8	0.08213991
18	0x3e0d7928	0.13815749
19	0xbd0cea58	-0.034403175
20	0xbd170313	-0.036868166
21	0x3acde5c9	0.001570874
22	0xbe1f0958	-0.15530908
23	0xbe5ffd62	-0.21874002
24	0x3c9f808f	0.019470481
25	0xbd60e8e9	-0.05490962
26	0x3ce28254	0.027650036
27	0x3ab95ad0	0.0014141444
28	0x3c90ea33	0.0176898
29	0x3c7565ef	0.014977916
30	0xbc9638b9	-0.018337594
31	0x3dcda4d5	0.10041205
32	0x3ccdcc5e	0.025121864
33	0x3c971c72	0.018446181
34	0x3ccedc19	0.025251435
35	0x3db8baeb	0.09020027
36	0x3e375435	0.17903216
37	0xbc9b1879	-0.018932568
38	0x3da06df5	0.07833473
39	0xbdc5ed1e	-0.09664367
40	0x3d92fb99	0.07176895
41	0xbcadb718	-0.02120547
42	0x3d5b1e44	0.05349566
43	0x3cfa0c93	0.030523574
44	0xbea7cc95	-0.3277327
45	0xbd294382	-0.041324146
46	0xbcf5233b	-0.029924026
47	0xbdfb93b3	-0.12284031
48	0x3db28f7e	0.08718775
49	0x3e08ac11	0.13346888
50	0x3ddbaa9e	0.10725902
51	0x3c8ed36e	0.017434802
52	0x3d9f2d1e	0.07772277
53	0x3d34e20a	0.04416088
54	0x3d823118	0.0635702
55	0x3c5f40dc	0.0136263035
56	0x3dc9c5de	0.09852193
57	0xbc2d3ccf	-0.01057358
58	0xbdd7019d	-0.104983546
59	0x3e0bbc19	0.13645972
60	0x3c179099	0.009250783
61	0x3e166288	0.14686024
62	0x3c35cef3	0.011096704
63	0xbe0322cd	-0.12806244
64	0x3e0f6a28	0.14005339
65	0x3d358b4f	0.04432231
66	0x3d129582	0.035787113
67	0x3d95597b	0.07292458
68	0xbe369a6d	-0.17832346
69	0x3d986625	0.074413575
70	0x3d03a1cd	0.032136727
71	0xbd743de3	-0.059629332
72	0x3d5fd52b	0.054646652
73	0xbdd012bc	-0.10159823
74	0xbdaa1f70	-0.083067775
75	0x3de5554e	0.11197911
76	0xbe348973	-0.17630558
77	0xbda987ba	-0.08277841
78	0xbd05d213	-0.032671046
79	0x3d9984b5	0.07496015
80	0xbd5411b7	-0.051774707
81	0x3cd6b45d	0.02620905
82	0xbe4817f9	-0.19540395
83	0x3e2a87c6	0.16653356
84	0xbd5197aa	-0.05117003
85	0xbc76452f	-0.015031143
86	0x3e3ceab6	0.1844891
87	0x3df3c5da	0.119029716
88	0x3d747b83	0.059688102
89	0xbd865ed3	-0.06561055
90	0xbd674c19	-0.056469057
91	0x3d0e6489	0.034763847
92	0x3d867513	0.06565299
93	0x3d133ae3	0.03594483
94	0xbd4564af	-0.048191722
95	0x3d94fba3	0.072745584
96	0xbd256441	-0.040378813
97	0xbb72d490	-0.0037052967
98	0xbd9e6ab4	-0.07735196
99	0x3d9a039d	0.075202204
100	0xb999a9f3	-0.00029309056
101	0x3dbd3cae	0.09240089
102	0x3e06b279	0.1315402
103	0x3d8d7b7f	0.06908321
104	0x3e18d4d9	0.14924945
105	0x3dd20c44	0.10256246
106	0x3cb88e49	0.022528784
107	0x3db1c308	0.086797774
108	0xbd6aa1a0	-0.057283044
109	0x3dd8571e	0.10563491
110	0x3dcce6b7	0.10004943
111	0xbc38385f	-0.011243909
112	0xbdb3d1a2	-0.08780219
113	0xbc89e738	-0.016833887
114	0x3d2412d6	0.040057026
115	0xbdcd7972	-0.100329295
116	0x3d831ba6	0.06401758
117	0x3b899d07	0.0041996273
118	0x3e19476a	0.14968649
119	0x3ce96a96	0.028493207
120	0x3d9f995f	0.07792925
121	0x3d1ba3fb	0.03799818
122	0xbdc9035c	-0.09815094
123	0xbded8e25	-0.115993775
124	0xbd3999a8	-0.045312554
125	0xbcd5aef2	-0.026084397
126	0x3e248bbe	0.16068932
127	0xbe09ff0b	-0.13476197
128	0xbd53c5d8	-0.05170235
129	0x3de1841b	0.11011525
130	0x3d8aee78	0.067837656
131	0xbe72f3e3	-0.23725848
132	0x3d338da1	0.04383624
133	0x3c7658bb	0.015035803
134	0xbd2f56e7	-0.042807486
135	0x3c3bd2e7	0.011463857
136	0xbe25fdec	-0.16210145
137	0xbd12a10f	-0.03579813
138	0x3d3649a8	0.044503838
139	0xbda10bce	-0.0786358
140	0x3e1d4685	0.15358932
141	0x3db69542	0.089151874
142	0xbb9b48b6	-0.0047388924
143	0x3ddc77d8	0.10765046
144	0x3dd52b1f	0.10408615
145	0x3d42d820	0.047569394
146	0xbe1c69e1	-0.15274765
147	0xbda05311	-0.07828344
148	0xbb990212	-0.0046694363
149	0xbd1bb266	-0.03801193
150	0x3d861daa	0.06548627
151	0x3c7f3a14	0.015577812
152	0xbdb7fab9	-0.089833684
153	0x3db1332f	0.086523406
154	0x3db9e288	0.090764105
155	0xbdf16659	-0.117870994
156	0x3dbc0ac9	0.091817446
157	0x3b331ab5	0.002732915
158	0xbe4a2f69	-0.19744648
159	0x3d4cdf5b	0.050017696
160	0x3db4fc74	0.08837214
161	0xbdcde2a7	-0.10052996
162	0xbe1078f2	-0.14108637
163	0x3d1891e7	0.03724852
164	0xbdacf4df	-0.08445143
165	0x3df95390	0.121741414
166	0x3deeed4e	0.11666356
167	0xbc69e2bd	-0.01427525
168	0x3e824afe	0.2544784
169	0xbea00ea8	-0.31261182
170	0xbe2da38e	-0.16956922
171	0xbc1966fd	-0.009362933
172	0xbd9b4dbf	-0.07583188
173	0xbd2fcd48	-0.04292038
174	0x3d63b361	0.05559099
175	0x3e38a17f	0.18030356
176	0x3dfc2a88	0.123128
177	0x3e58f1a8	0.21185935
178	0xbd22e19b	-0.039765935
179	0xbdc53a65	-0.096302785
180	0xbd0b5fa5	-0.03402676
181	0xbd71d149	-0.05903748
182	0xbc1e91a6	-0.00967828
183	0xbcdd8d92	-0.027045045
184	0x3c70601f	0.014671355
185	0x3d875355	0.06607691
186	0xbd6fdb95	-0.05855902
187	0xbdb70fd7	-0.08938568
188	0x3e3e9a6f	0.18613599
189	0x3ccb2175	0.024796227
190	0xbdc93971	-0.09825409
191	0xbe83efb8	-0.25768828
192	0x3d8269db	0.063678466
193	0x3d76ef19	0.060286615
194	0x3d7f1ee8	0.062285334
195	0xbdd8e9a1	-0.10591436
196	0x3d45a16f	0.04824966
197	0x3d05e0dc	0.032685146
198	0xbc62b5a6	-0.013837254
199	0xbcfadc5d	-0.030622656
200	0x3c053cac	0.008132141
201	0x3d0aba6b	0.03386919
202	0xbd98c833	-0.0746006
203	0xbc8a83a9	-0.016908484
204	0xbd413beb	-0.047176283
205	0x3e152fd8	0.14569032
206	0x3c379ca3	0.011206779
207	0xbd5076f3	-0.05089469
208	0x3daecc2b	0.08535036
209	0xbdd973cd	-0.1061779
210	0x3d54aeed	0.051924635
211	0x3dba0e65	0.09084777
212	0xbcf01e38	-0.029311284
213	0xbd4d2f37	-0.050093856
214	0x3cd93d8f	0.026518611
215	0x3d3a8a89	0.045542274
216	0xbd1836e5	-0.037161727
217	0x3d85c2dd	0.06531308
218	0x3da4cbb2	0.08046664
219	0xbd91cc24	-0.07119015
220	0xbd0c2d35	-0.0342228
221	0xbdbe284b	-0.09285029
222	0x3dbae096	0.091248676
223	0x3d13e444	0.036106363
224	0xbd79e8ef	-0.06101316
225	0xbd9caf8a	-0.07650669
226	0xbccb8b11	-0.024846585
227	0xbe51325f	-0.20429371
228	0xbd85eebf	-0.06539678
229	0xba9c5b4e	-0.0011929066
230	0xbd02684c	-0.031837747
231	0x3cdad17e	0.026711222
232	0xbd2b995c	-0.0418943
233	0xbd70e955	-0.058816273
234	0x3d185c50	0.03719741
235	0x3d0b8f21	0.034072045
236	0xbd34ddac	-0.044156715
237	0xbc6fadb1	-0.014628814
238	0xbda63dc1	-0.081172474
239	0x3c8f0fa5	0.017463515
240	0xbe218c28	-0.15776122
241	0x3d5e4f3b	0.05427478
242	0x3e2bc901	0.16775896
243	0xbe7acad1	-0.24491431
244	0x3b8dfb57	0.0043329406
245	0x3d9d9032	0.07693519
246	0xbdcfef20	-0.10153031
247	0x3d8df601	0.06931687
248	0x3ba31d40	0.004977852
249	0x3d16ebcc	0.036845967
250	0x3cf76fe7	0.030204726
251	0xba1b0f0f	-0.00059150247
252	0x3dc5e052	0.09661926
253	0x3d8dce8a	0.0692416
254	0x3d5ffe9e	0.05468618
255	0xbd820350	-0.06348288

network_body._body_endoder.seq_layers.2.bias f4 [128]
0	0x3b25aaf7	0.0025278905
1	0xbd1113d4	-0.0354193
2	0xbc670c7a	-0.014102096
3	0xbd07558b	-0.033040565
4	0xbcb1737b	-0.02166151
5	0xbcca097b	-0.024662724
6	0xba00bc7a	-0.00049108977
7	0xbb8998de	-0.0041991314
8	0xbb9ab293	-0.0047209947
9	0x3b531569	0.0032208806
10	0xbb6fa42e	-0.0036566365
11	0xbc92c606	-0.01791669
12	0xbdb129e6	-0.086505696
13	0x3d25788a	0.040398158
14	0x3dd4914a	0.10379274
15	0xbd329be8	-0.043605715
16	0x3cb30ece	0.021857645
17	0x3d0e3562	0.03471888
18	0xbaa1b3cc	-0.0012336909
19	0xbd53b8ee	-0.051690035
20	0xbc994288	-0.018708482
21	0xbb1fd733	-0.0024389743
22	0xbd05c712	-0.03266055
23	0x3cfbf600	0.03075695
24	0x3d01597b	0.031579476
25	0x3bca634c	0.006176388
26	0x3d08a819	0.033363435
27	0xbd0b4f96	-0.034011446
28	0x3d23c41c	0.039981946
29	0x3cbc4f05	0.022986898
30	0x3c20a280	0.009804368
31	0xbda5848c	-0.08081922
32	0xbc198b49	-0.009371587
33	0x3db117b7	0.08647101
34	0x3ba8f9ac	0.0051567163
35	0xbd4d4ec8	-0.05012396
36	0xbcdc1fc4	-0.026870616
37	0xbc8980e4	-0.016785093
38	0x3d137fc4	0.03601052
39	0xbd3ba3ba	-0.04581044
40	0xbc5f2acb	-0.0136210425
41	0x3d2dd55a	0.042439796
42	0xbbe8f911	-0.007109769
43	0xbd8739ef	-0.06602847
44	0xbd2e0de2	-0.04249371
45	0xbd875ed1	-0.06609882
46	0x3d6bb0f0	0.057541788
47	0x3cdacd53	0.026709234
48	0xbd44923c	-0.047991022
49	0x3ceb4f14	0.02872423
50	0xbd2c5914	-0.04207714
51	0x3d3607b0	0.044440925
52	0x3c0e884b	0.008699487
53	0xbca6c003	-0.02035523
54	0xbbb6e8fb	-0.0055819727
55	0xbd8f010c	-0.069826216
56	0x3db21458	0.086952865
57	0xbd828426	-0.063728616
58	0xbc9bd241	-0.019021155
59	0xbbf39782	-0.0074338326
60	0x3bf8d3d7	0.0075936127
61	0x3b228191	0.0024796466
62	0xbda4aa6f	-0.0804032
63	0xbd015b65	-0.0315813
64	0xbd98211f	-0.07428192
65	0xbb74cd0f	-0.003735367
66	0xbd75ccbc	-0.060009703
67	0x3b0b67dc	0.0021271622
68	0xbd1dccc7	-0.03852537
69	0x3cb97551	0.022638949
70	0x3d08123a	0.033220507
71	0xbd51509c	-0.051102266
72	0xbd49aaaa	-0.049235024
73	0xbcd6adb9	-0.026205884
74	0x3d2f1759	0.042746875
75	0xbc9ffd86	-0.01953007
76	0x3d1d64b7	0.038426127
77	0x3d070ccc	0.03297119
78	0x3d1250c7	0.035721567
79	0xbd726134	-0.05917473
80	0x3d499999	0.049218748
81	0x3d368382	0.04455901
82	0xbcfe23e6	-0.031022977
83	0xbd159798	-0.036521524
84	0xbc8b64f6	-0.017015915
85	0xbd1581e1	-0.036500815
86	0xbc849a10	-0.016186744
87	0xbb7d2af2	-0.0038630334
88	0xbce1d920	-0.027569354
89	0xbd08c98c	-0.033395335
90	0xbacb8052	-0.0015525913
91	0xbd6036f0	-0.054739892
92	0xbc646c94	-0.013941903
93	0x3c929adb	0.017896106
94	0x3db9daf0	0.09074962
95	0xbd191438	-0.037372798
96	0x3d7bf68f	0.061514433
97	0x3bc7bc71	0.006095462
98	0xbacf5564	-0.0015818295
99	0xbd431bcf	-0.047633942
100	0x3ced12de	0.02893966
101	0x381a61f2	3.680768e-05
102	0x3cf56cda	0.029959131
103	0xbd5ce7c3	-0.053931963
104	0x3ca41a94	0.020032205
105	0x3bfdd6bd	0.007746546
106	0x3c9e6320	0.019334376
107	0xbc390c12	-0.011294382
108	0xbd7fd323	-0.062457215
109	0xbd54179b	-0.051780324
110	0xbd3004fb	-0.0429735
111	0xbda9cb40	-0.0829072
112	0x3bb7efcc	0.005613303
113	0xbd4833d9	-0.04887757
114	0x3c08c462	0.008347603
115	0xbd5d96c0	-0.054098845
116	0x3db0b60f	0.08628475
117	0x3b231dc7	0.0024889575
118	0xbd02de40	-0.031950235
119	0x3a1ae7e9	0.0005909191
120	0xbc698d9e	-0.014254956
121	0x3d594012	0.053039618
122	0x3da3e515	0.08002678
123	0x3d22bac5	0.0397289
124	0xbd8eee94	-0.06979099
125	0xbd2f228b	-0.042757552
126	0x3ca25005	0.019813547
127	0x3b231d7b	0.0024889398

action_model._continuous_distribution.log_sigma f4 [1, 2]
0	0xbe93295c	-0.28742492
1	0xbeb29d2b	-0.34885535

action_model._continuous_distribution.mu.weight f4 [2, 128]
0	0xbc40fde4	-0.011779282
1	0x3c747990	0.014921561
2	0xbd32cdb1	-0.043653194
3	0x3c89ca26	0.016820025
4	0x3d6c5fb3	0.057708453
5	0x3d5738cb	0.052544396
6	0xbcd51802	-0.026012424
7	0x3ccca71e	0.024982031
8	0xbcf40ed1	-0.029792221
9	0xbda1913f	-0.078890316
10	0x3cd51c41	0.02601445
11	0x3d0d3772	0.034476705
12	0x3cbb87c7	0.022891892
13	0x3d0ed921	0.03487504
14	0xbc841a86	-0.016125929
15	0x3d0991df	0.03358638
16	0xbd14a152	-0.03628666
17	0x3d20f609	0.039297137
18	0xbd6321a1	-0.055451993
19	0xbca1b3ee	-0.019739117
20	0x3bca8106	0.0061799316
21	0xbd447778	-0.047965497
22	0x3d2c340b	0.04204182
23	0x3cdc79d1	0.026913555
24	0x3d8b8cb9	0.0681395
25	0x3d82350f	0.063577764
26	0x3d6f6b12	0.05845172
27	0x3c41b879	0.011823767
28	0xbd957127	-0.07296973
29	0x3d02e198	0.031953424
30	0x3d613281	0.054979805
31	0x3d1aa73e	0.03775715
32	0x3cf85325	0.030313084
33	0x3dcdd945	0.100512065
34	0xbc9b23bb	-0.018937936
35	0x3d09ca7d	0.033640373
36	0x3d01f243	0.03172518
37	0xbc654bc2	-0.013995113
38	0xbd3db6cc	-0.046316907
39	0x3d51aea0	0.051191926
40	0xbcff06a9	-0.031131105
41	0xbdaae7f5	-0.083450235
42	0x3d93dcb3	0.072198294
43	0xbbdea045	-0.006794008
44	0xbccffbf5	-0.025388697
45	0xbbaa5902	-0.005198599
46	0xbdab5462	-0.08365704
47	0xbd9b3856	-0.075791046
48	0xbc12c4a8	-0.008958019
49	0xbda52342	-0.080633655
50	0xbd01251c	-0.03152953
51	0xbc9cb5d7	-0.019129677
52	0x3d1ad4ed	0.037800718
53	0xbce45748	-0.02787365
54	0x3c068897	0.0082112765
55	0xbbbf0548	-0.005829487
56	0x3d8d7889	0.06907756
57	0x3c5b3a97	0.013380668
58	0xbd1af61f	-0.037832376
59	0xbd0cd024	-0.034378186
60	0x3c856a75	0.016286114
61	0xbcfe78fe	-0.031063553
62	0xbc1cd087	-0.009571201
63	0xbcdc513a	-0.0268942
64	0x3c946186	0.018112909
65	0xbcbf0e23	-0.02332217
66	0x3c0c4c3b	0.008563097
67	0xbd0d53db	-0.0345038
68	0xbc795cc8	-0.015219875
69	0x3dec72c9	0.11545331
70	0xbd5c1ebb	-0.053740244
71	0x3bdae728	0.006680388
72	0x3d51aa6a	0.05118791
73	0x3c718ccd	0.014743042
74	0x3dc41fdd	0.0957639
75	0x3d08727b	0.033312302
76	0x3d9d210f	0.07672321
77	0x3d256a48	0.04038456
78	0xbd1713e9	-0.036884222
79	0x3d5d8464	0.054081336
80	0x3d05b9e7	0.032647993
81	0xbd2d4100	-0.042298317
82	0xbc285c8f	-0.010275974
83	0x3d08040e	0.03320699
84	0xbccd7fed	-0.025085414
85	0xbb9be733	-0.0047577857
86	0xbd835c4d	-0.06414089
87	0xbd214728	-0.0393745
88	0xbcabbf72	-0.020965312
89	0x3ca93aa2	0.020657841
90	0x3d9abe02	0.07555772
91	0xbb792374	-0.0038015516
92	0x3d0a53ca	0.033771314
93	0x3d4012bf	0.046892878
94	0x3d2857e2	0.041099437
95	0xbbcb424d	-0.006202972
96	0xbcf1339a	-0.02944355
97	0xbcabf79d	-0.020992095
98	0x3d465ae3	0.04842652
99	0xbb95739c	-0.004560901
100	0xbda08c0c	-0.07839212
101	0xbc54e034	-0.012992907
102	0xbd7dcf57	-0.061965313
103	0xbc7451ba	-0.014912063
104	0xbcd5d216	-0.026101153
105	0x3b70b724	0.0036730254
106	0xbba6c8bd	-0.005089848
107	0x3d817989	0.06322009
108	0x3d50390a	0.050835647
109	0x3c2e5a13	0.010641593
110	0x3b8d029d	0.00430329
111	0x3b0250d9	0.0019884615
112	0x3c6fa067	0.014625645
113	0xbd049cc3	-0.032376062
114	0xbd82e119	-0.0639059
115	0xbd166d7e	-0.036725514
116	0xbd0594ed	-0.03261273
117	0xbd0fdf3a	-0.035124995
118	0x3bb43c52	0.005500355
119	0x3d93fdec	0.07226166
120	0x3d1607c6	0.036628507
121	0x3dae46b3	0.085095786
122	0xbd97e64e	-0.07416974
123	0x3d986d5b	0.07442733
124	0x3ce1f2fd	0.027581686
125	0x3cb5bcc9	0.022184746
126	0x3d81278e	0.063063726
127	0xbb39be85	-0.0028342318
128	0xbd2cc3b8	-0.04217884
129	0xbbd3846f	-0.0064549963
130	0xbd79f2ab	-0.06102244
131	0xbd135fee	-0.035980158
132	0xbd510459	-0.051029537
133	0x3bccd8f3	0.0062514483
134	0x3b94f664	0.0045459736
135	0xbd8a46ed	-0.06751809
136	0xbd0312c9	-0.032000337
137	0xbd2c0b6e	-0.042003088
138	0x3cb7250e	0.022356536
139	0xbd4883af	-0.04895371
140	0x3cbadf95	0.02281169
141	0x3d442e5d	0.047895778
142	0x3da2ee97	0.07955664
143	0x3c83de4c	0.01609721
144	0x3d192c42	0.037395723
145	0x3db1006e	0.0864266
146	0x3ae9780e	0.0017812268
147	0xbba5b29a	-0.0050566914
148	0xbd304841	-0.043037657
149	0x3c999de4	0.018752046
150	0xbc30028f	-0.0107427975
151	0xbd9b3957	-0.07579296
152	0x3ced6ba0	0.028981984
153	0x3ce83ac3	0.028348332
154	0xbda59820	-0.08085656
155	0xbd6784b5	-0.056523044
156	0x3c3556d3	0.011068064
157	0x3d8cbd84	0.06872085
158	0x3d33a792	0.04386098
159	0xbbed99cd	-0.0072510005
160	0xbdcdb6f5	-0.10044662
161	0x3da448c6	0.08021693
162	0xbd8b2516	-0.06794183
163	0xbc9394d4	-0.018015303
164	0x3d032f34	0.03202744
165	0x3c816f55	0.015800158
166	0xbcb1b36c	-0.021692
167	0x3c7c61b0	0.01540415
168	0xbd412bf8	-0.047161072
169	0xbcce3223	-0.025170391
170	0xbbb20fea	-0.005434026
171	0xbc053d0e	-0.008132232
172	0xbc052411	-0.008126275
173	0xbba145d7	-0.0049216556
174	0x3d85a9e2	0.06526543
175	0xbdc729da	-0.097247794
176	0xbcbef6dd	-0.023311073
177	0x3d003c52	0.031307526
178	0xbd031ef0	-0.032011926
179	0xbdc69d10	-0.09697926
180	0x3c5a7305	0.013333087
181	0xbd28a9f9	-0.041177724
182	0xbd92522e	-0.07144581
183	0xbc79b8b0	-0.015241787
184	0x3d9f1f15	0.077696
185	0xbd51eccd	-0.05125122
186	0x3ccec745	0.025241503
187	0xbcd1ad8b	-0.025595447
188	0xbd93de75	-0.07220165
189	0xbd270dca	-0.040784635
190	0x3b3e0fde	0.0029001157
191	0x3ceed06a	0.029152114
192	0xbc412108	-0.01178766
193	0xbbb42790	-0.0054978803
194	0xbd6108d4	-0.05494006
195	0x3c945e48	0.018111363
196	0xbd12d57e	-0.035848133
197	0x3d50f085	0.051010627
198	0xbc6ba075	-0.014381518
199	0xbd0f5234	-0.034990504
200	0xbd678d53	-0.05653126
201	0xbc89d70f	-0.01682618
202	0x3d0c88fc	0.034310326
203	0x3bb20251	0.005432405
204	0xba9b87dc	-0.0011866051
205	0xbd7dd64b	-0.061971944
206	0x3d54f96c	0.05199568
207	0x3ca80f0c	0.020514987
208	0x3d9b5b9d	0.07585833
209	0xbdb995fe	-0.09061812
210	0xbc1c84d7	-0.009553156
211	0xbd058de6	-0.032606028
212	0xbbf6ebd1	-0.0075354357
213	0xbd42f13b	-0.047593337
214	0x3d333c47	0.043758657
215	0xbcb8f5c3	-0.022578126
216	0x3b96bdf2	0.00460028
217	0xbc15b9a0	-0.009138495
218	0xbd39de29	-0.045377884
219	0xbc7d529a	-0.015461588
220	0x3ca7b557	0.020472212
221	0xbd9935ab	-0.074809395
222	0x3e039879	0.12851132
223	0x3cb228f7	0.02174805
224	0x3d9649b2	0.07338275
225	0x3d102696	0.03519305
226	0x3d2b8682	0.041876324
227	0x3c01e6aa	0.00792853
228	0xbc0e4e54	-0.008685667
229	0x3d52f366	0.051501654
230	0x3bc1d907	0.0059157643
231	0x3b3182a2	0.002708592
232	0x3d2368c4	0.039894834
233	0x3d3083c1	0.0430944
234	0xbdbe0738	-0.092787206
235	0x3cdbf2d9	0.026849197
236	0xbc2b977a	-0.010473127
237	0x3adfc86b	0.0017073279
238	0xbd50d09e	-0.050980203
239	0xbc2f0237	-0.01068168
240	0x3d635f50	0.05551082
241	0xbd2fcb22	-0.042918332
242	0xbca85478	-0.02054809
243	0xbb32887a	-0.002724199
244	0x3de527d6	0.11189239
245	0x3c9f8aad	0.019475305
246	0xbd0c9d0a	-0.03432945
247	0x3b64f32e	0.0034934985
248	0xbcfb045e	-0.03064173
249	0x3db8c4ed	0.090219356
250	0x3d621390	0.055194438
251	0xbbd12048	-0.006382022
252	0x3a70d85c	0.00091875135
253	0x3c93b57d	0.018030876
254	0x3ca57ae7	0.020200206
255	0x3cc309aa	0.02380832

action_model._continuous_distribution.mu.bias f4 [2]
0	0xbc82b6ee	-0.015956368
1	0x3d3d67a4	0.046241418

action_model._discrete_distribution.branches.0.weight f4 [1, 128]
0	0x3b6ddc42	0.0036294614
1	0x3c6e6033	0.014549303
2	0x3b0cb2ef	0.0021468957
3	0x3b74fd30	0.0037382357
4	0xba25fa65	-0.0006331562
5	0xbc2d608c	-0.010582101
6	0x3b365621	0.0027822333
7	0xbbc9e21e	-0.0061609885
8	0x3ba31155	0.0049764314
9	0x3a376617	0.00069961086
10	0xbb13a4e7	-0.002252871
11	0xbba08cd7	-0.004899602
12	0xbc4b9a79	-0.012426966
13	0x3beb6c75	0.00718456
14	0xbb935282	-0.0044959197
15	0x3a6ec4c5	0.00091083004
16	0x3b82f787	0.0039967927
17	0x3b5ebc5b	0.003398678
18	0xb9f3180a	-0.00046366482
19	0xbc15c8a9	-0.009142079
20	0x3c1891fb	0.009312148
21	0xbc11bfa3	-0.008895787
22	0x3af9de9f	0.0019063539
23	0xbb41e8a5	-0.002958813
24	0xbbd96be0	-0.006635174
25	0xbc78f153	-0.015194255
26	0xbb81311f	-0.0039426233
27	0xbb72f2bf	-0.0037070957
28	0xb975d362	-0.00023443767
29	0xbb986b50	-0.0046514645
30	0x3bed6268	0.007244397
31	0xbb98ebcd	-0.0046667815
32	0x3c509748	0.012731381
33	0x3c4f956d	0.012669903
34	0x3b87a9f6	0.004140134
35	0x3b9d221f	0.0047953273
36	0xbba95f45	-0.0051688277
37	0x3b89c4fa	0.0042043896
38	0xbc7f40df	-0.015579431
39	0x3c13bc47	0.009017057
40	0x3c65fb02	0.014036896
41	0xbb269633	-0.0025419116
42	0xbb21968d	-0.0024656386
43	0xbbf64332	-0.0075153345
44	0x3c40e2cb	0.011772822
45	0xba7632fb	-0.0009391752
46	0x3c93de9e	0.018050488
47	0x3a986540	0.0011626855
48	0x3c1d7f72	0.009612905
49	0x3c1ae787	0.0094546145
50	0x3bdf74a2	0.0068193236
51	0xbbaf93f1	-0.005358212
52	0x3b821487	0.003969732
53	0xbc29a2ea	-0.010353783
54	0x3b946ca9	0.004529555
55	0xbb7f6113	-0.0038967773
56	0x39ce84a2	0.000393902
57	0x3cb916bc	0.022593848
58	0xbc2f40a9	-0.0106965685
59	0x3c2ce354	0.010552246
60	0xbc87f723	-0.016597336
61	0xbc465a44	-0.012106482
62	0x3a73009a	0.0009269804
63	0xbc634a47	-0.01387269
64	0x3b87f54b	0.0041491142
65	0x3c25c97b	0.0101188375
66	0x3b1622c3	0.0022908903
67	0x3aa4374d	0.0012528688
68	0xbbb10307	-0.005401972
69	0x3b9838b3	0.004645431
70	0xbc3e7a37	-0.011625818
71	0xbc0e77dd	-0.00869557
72	0xbb8cfae3	-0.004302369
73	0x3b6fb06d	0.0036573664
74	0x3c2bf922	0.01049641
75	0xbbb01eb8	-0.0053747557
76	0x3beb6313	0.0071834414
77	0xbb5db91d	-0.003383226
78	0x3c64c42b	0.013962786
79	0x3b90b1f6	0.004415746
80	0x3c173f44	0.009231392
81	0x3bf118ab	0.007357677
82	0x3b994184	0.0046769995
83	0xba855b24	-0.0010174257
84	0xba8ae508	-0.0010596821
85	0x3a82cfd8	0.0009980155
86	0xbafc0e1a	-0.0019230277
87	0x3b018fc4	0.001976953
88	0xbc31ce07	-0.010852343
89	0x3c1d9a5f	0.0096193245
90	0xbaf7465b	-0.0018865572
91	0x3c2948d9	0.01033231
92	0x3baaeae6	0.0052159904
93	0xbb843cd4	-0.0040355716
94	0xbc1f7c21	-0.0097341845
95	0xbc08d914	-0.008352537
96	0x3b9222e7	0.004459727
97	0xbb41ad0a	-0.0029552602
98	0xbbb3c49f	-0.0054860855
99	0x38bdfedb	9.059693e-05
100	0xbc3db0da	-0.011577809
101	0xbb65e93d	-0.0035081648
102	0x3b063dab	0.0020483534
103	0xb934b610	-0.00017233961
104	0xbae578d8	-0.0017507328
105	0x3b3659ed	0.0027824596
106	0xbb968f8a	-0.004594748
107	0xba9067e2	-0.0011017288
108	0x3b9ef092	0.0048504556
109	0xbbc82719	-0.0061081764
110	0x3c3217af	0.010869904
111	0xbc6b12cf	-0.014347746
112	0xbbb9089f	-0.0056467797
113	0x3b269fd5	0.0025424857
114	0x3c20c67a	0.0098129455
115	0x3bf1528f	0.007364578
116	0x3ae63983	0.0017564747
117	0xbc2392fb	-0.009983773
118	0x3a2a386f	0.00064933946
119	0x3af333cb	0.0018554864
120	0x3bce71ef	0.006300203
121	0xbc0657ae	-0.008199615
122	0x3b2dd6bf	0.0026525704
123	0x3b9b7be9	0.004744996
124	0xbc3697c7	-0.011144585
125	0x3c775070	0.015094861
126	0xbc6a5d62	-0.014304491
127	0x3c2280c7	0.009918398
